Assets/results/RL1/RollerBall/RollerBall-176499.pt (torch, 447510 bytes, 36 tensors)

network_body._body_endoder.seq_layers.0.weight f4 [128, 8]
00000000: 93b0 1d3e 89c3 e8be 83d5 df3d 402f 473e
00000010: 5215 5fbd 0dba ed3e 3bca 0fbe 930c c3bd
00000020: 55fe d23d 1114 a13e 0065 c33e dcff 8d3e
00000030: 700f d1bc 26d9 4f3f c7d3 51be 45ca 05bf
00000040: 462d d63d cd05 59be d245 113f 7062 27bf
00000050: 3bfe c4be 26b4 68bf 0c5a 333f 5d91 05bf
00000060: ab62 0d3f 87a4 ba3e 0434 d0be 253a 5e3d
00000070: e3ff ef3d 61b3 02bd 4585 a73d ce1e e13e
00000080: 4bf1 6a3e 9613 77bc 2a1e bebd a70f 49bf
00000090: 5205 7e3e e245 043f d9ea 33be 5515 d4bd
000000a0: f949 dfbe c2df a93e 672a 1abe 3ca6 6c3c
000000b0: d23c a23e cfb9 cb3e 9016 d63e 1378 10be
000000c0: bf3e 6b3e 2666 0e3e 33f6 0fbf 67f4 06bf
000000d0: 0f62 1cbf c1b6 7bbe bfc5 173f 25e2 91be
000000e0: cb7f 91be 24cb a13e dbee c73e 3bb4 6c3e
000000f0: 88c9 633f 5d92 113e 3c8b 21be d1b3 0e3f
00000100: 386b 723e 239a 5f3e e3b9 333f fe44 ccbe
00000110: e470 eabe beeb 02bf 074c be3e ed05 31be
00000120: 99ba bf3d f6a5 e8be 9263 283f 93f2 edbe
00000130: a67d 07bf 432f 88be 84d0 40be 331c 9bbe
00000140: 83e8 bbbe 6402 4abd dd8c 9fbe bdf0 e6bd
00000150: 5588 d63e 21d6 263f a2d0 e5be bcb2 0f3f
00000160: 8fb3 11bd c936 9dbc 6c74 a83e f4c7 0b3e
00000170: 58f5 1dbf 7b58 193e 4a77 98be ec7e 6dbe
00000180: 01b8 d13e 8eec 2a3c 80ed 08be b620 07bf
00000190: 8d2d 913e f9b2 04bf 7705 013e 5d05 25bf
000001a0: acd9 0a3f 2415 d63e 6992 74bf 1387 51be
000001b0: 1b63 5a3e 381d febd 0e4e 89be 58c2 22bd
000001c0: 8c15 29bf 463b 3d3f c539 b33e 8722 1b3f
000001d0: 9843 2ebf e5db 82be 0be5 9abe 2350 e53b
000001e0: 5d1e b63b 50b3 f03e 5ab6 f13e 2dbc 64bd
000001f0: c27c 173e 297c 5cbe 7705 663e 0808 09bf
00000200: 33e4 103e 5bf1 45bf 951c 333d e689 c5be
00000210: b886 3cbf 8e3d 4a3e 8e0f df3e 9fdb 113f
00000220: e064 07bc a830 883e dd6b 3fbd 0664 8bbd
00000230: 13ea 933d 889a 15be 053d 27be 784e 46bf
00000240: cfb6 463f dad4 01be ba55 d53e ad0c 16bf
00000250: 8517 8dbc 7824 dd3e e408 a13e 2eb9 943b
00000260: 999a 413e 9902 01bf c068 733e 2bb3 8f3e
00000270: df1b 0f3e 3df1 adbe af67 cf3e 27cc 90ba
00000280: e49a a2be 85f9 cebe c22a a73e 8b23 633e
00000290: 5508 76be 946f 1c3e 6979 3bbd 3442 aa3e
000002a0: 7ef6 a6be 0bcc d63e 71e6 a2bc dc5d 603e
000002b0: 03cd 69bf 8b4e ca3d 74b5 f23e 9df0 d8be
000002c0: d654 383f d751 5bbe e115 b7be 6563 0abf
000002d0: bbe0 a23d ccc6 47be bbb0 883d f8e1 b53d
000002e0: 9535 88be e427 aabd b656 1ebf b94a 88be
000002f0: 3d31 383d b531 85be ace0 d5bd 5b7a bd3c
00000300: 15b3 833d 7e56 0dbf d501 bdbe 0569 223d
00000310: a14d c9be fddd 20bf 0eff 513f 9222 36bf
00000320: 8f24 113f 1fef 58be 761d 9a3e 732d b1be
00000330: d08f f13c 4a90 13bd 2be0 f1bd 9200 653e
00000340: 6c67 9abd c0c1 083e d4d1 1f3e 5174 943e
00000350: a2bf f93e b269 34be c10c e83d 01f4 4cbe
00000360: 52b3 3c3f f90a b9be 1291 c23e 94e1 f13d
00000370: 3844 f03d c1bd 0c3f 0e2e 07be 99ae 8cbe
00000380: 727c d93d 4cab d7bd 684f 1f3e e292 be3d
00000390: cb68 ba3d ef96 a33d 0fca 5cbe df90 0fbf
000003a0: 0c16 1ebe b442 573f 2d7d acbe f22f b93d
000003b0: 6a61 fd3e 18b4 6a3e 2c4d 963e 6484 813e
000003c0: ac93 c6be d52c 18bd 1b2f 83be c6ff 66bd
000003d0: 8bd0 003c aeec 78be dfa2 e2be 7f13 063e
000003e0: d7d5 5e3e f415 b2be 1502 3fbe 7e5f 973c
000003f0: 1d81 e2b9 6e1d a73e 4d32 43bc c677 203f
0.15399389 -0.4546168 0.10929396 0.19451618 -0.054463692 0.46431008 -0.14041989 -0.09523883
0.10302416 0.31460622 0.38162994 0.27734268 -0.025520056 0.8119072 -0.20490943 -0.52261764
0.10457854 -0.21193619 0.5674716 -0.6538458 -0.38475212 -0.90899885 0.70059276 -0.5217493
0.5522868 0.3645365 -0.40664685 0.05425467 0.117187284 -0.03190935 0.08179716 0.43968815
0.22943608 -0.015080353 -0.09283097 -0.7853951 0.24806717 0.5166913 -0.17570056 -0.10355631
-0.43611124 0.33178526 -0.15055238 0.01444393 0.31687027 0.39790198 0.4181409 -0.14108305
0.22973154 0.13906154 -0.56235045 -0.5271668 -0.61087126 -0.24581434 0.5928611 -0.28492847
-0.2841781 0.31600296 0.3904942 0.23115627 0.8897939 0.1421599 -0.1577577 0.5574313
0.23673713 0.21836142 0.70205516 -0.39896387 -0.45789254 -0.51140964 0.3716738 -0.17287417
0.093617626 -0.45439118 0.6577693 -0.46474132 -0.529261 -0.26598558 -0.18829542 -0.30294952
-0.3670083 -0.049318686 -0.31162158 -0.11276386 0.41900888 0.65170485 -0.44885737 0.561321
-0.03557163 -0.019191163 0.32901323 0.13650495 -0.6170249 0.14975159 -0.2977851 -0.23192948
0.40960696 0.010432376 -0.13371849 -0.5278429 0.28355065 -0.5183559 0.12599741 -0.6446131
0.5423839 0.41813004 -0.95535904 -0.20461683 0.21326868 -0.12407917 -0.26817364 -0.039736122
-0.660485 0.7391857 0.35005012 0.6059956 -0.6807189 -0.2555839 -0.3025287 0.0069980784
0.005557819 0.47011805 0.47209436 -0.05584352 0.14793685 -0.21531738 0.22463022 -0.5352788
0.14149551 -0.77321404 0.04372843 -0.3858177 -0.73643064 0.19750044 0.43566555 0.5697574
-0.008263797 0.26599622 -0.046733726 -0.06806187 0.072223805 -0.1460973 -0.16331871 -0.77463484
0.77622694 -0.12678853 0.41666967 -0.5861309 -0.017223129 0.43191886 0.31452096 0.0045386767
0.1890663 -0.5039459 0.23770428 0.28066382 0.13975476 -0.33973113 0.40508792 -0.001104717
-0.31758797 -0.40424743 0.3264981 0.22181527 -0.24026616 0.15276939 -0.045770083 0.33253634
-0.32609934 0.41952547 -0.019885274 0.21910805 -0.9132845 0.09878262 0.47404063 -0.42371073
0.7200445 -0.21417938 -0.3575888 -0.54057914 0.0795302 -0.19509429 0.06674334 0.08880991
-0.2660338 -0.0830839 -0.6185106 -0.2661951 0.044968832 -0.26014486 -0.104432434 0.023129633
0.064306416 -0.552101 -0.3691546 0.039650936 -0.3931704 -0.6283873 0.8202981 -0.711465
0.5669641 -0.21184967 0.30100602 -0.34604988 0.02948752 -0.036026277 -0.11810335 0.22363499
-0.075392574 0.1335516 0.15607387 0.28994992 0.48779017 -0.17618445 0.113305576 -0.20014955
0.7371112 -0.36141184 0.38001305 0.11810604 0.11731762 0.5497704 -0.13201162 -0.27476957
0.10619439 -0.10530719 0.15557635 0.093053594 0.09102019 0.07987773 -0.21561454 -0.5608043
-0.15438098 0.84086156 -0.33689252 0.09042348 0.49488384 0.22920263 0.29355752 0.2529632
-0.3878454 -0.03715213 -0.25621876 -0.05639627 0.0078622205 -0.24309036 -0.44264886 0.13093375
0.21761261 -0.34782374 -0.18653138 0.018478151 -0.00043202276 0.3263964 -0.011913848 0.6268276

network_body._body_endoder.seq_layers.0.bias f4 [128]
00000000: deb8 d1bd 8b30 803c f195 efbc c23a b2bd
00000010: b8c9 c4bd ce22 813d 0ddf 8ebd 2622 b6bc
00000020: a1ef a03d bfbe 6fbd c2c5 6dbd 5042 fbbd
00000030: b507 1ebb 13a4 7c3c ca55 adbb d6d4 253e
00000040: e892 cfbd 6d8d 9dbd 573e a7bc 328f dd3c
00000050: 651f c3bc cbd8 543c 8b48 10bd 4736 78bd
00000060: 8793 b2bd 4aa8 883c a629 7e3d 4e14 063b
00000070: 7e59 efbd 1c89 113d 6423 19be ac5b 7abd
00000080: c284 09bd 1441 813d 0996 e1bd 293a 853d
00000090: c940 00be 3c47 c9bd ad4f 893c aeeb aebd
000000a0: 1669 ca3c 3c00 7dbc a5ac 07bd 7358 aabd
000000b0: 23cd 8e3d 4f38 243d 470d a4bd 026e 00be
000000c0: 8b3b 50bd 3583 84ba ab03 01bc f6d1 4bbc
000000d0: 09f9 6c3d c637 e03d 26c9 1b3d e9cc 393d
000000e0: 8e2e cdbb 3aa7 0dbc 2611 b83c 530d 46bc
000000f0: 207d d43b dec6 01bd 2d30 013c 3da8 aa3d
00000100: f25d e9bd a81c b13d 9e9c bdbd 7fdb 8c3d
00000110: 74dc 493d fb3a d1bd 0bec 663d 30e1 a0ba
00000120: 12d3 2f3c 17f2 c9bc 58d8 afbd fc31 b43c
00000130: 0833 ac3d cb20 9ebc 401f 333d 69bf 26bd
00000140: e60d f43c f9b4 73bd 0349 bbbc 6daa 00bb
00000150: 15c0 bbbd c0da febc d166 c13d d0c9 c1bc
00000160: 7536 be3c 4812 40bd a7f9 34bc 801d cbbd
00000170: 3108 3f3d 9b11 253d d1cb d6bb aec2 83bc
00000180: 5ace 7ebd a373 1c3d ccd9 91bd d6ae f1bc
00000190: 0527 54be a028 093d 7d94 d9bd be40 ec3b
000001a0: 4866 953d add3 b03c d350 92bd 7124 86bd
000001b0: 641d 88bc 22ce cebd 2b73 4dbd 5d94 b63c
000001c0: 1ab2 01be f4ab 4bbe 62ca ee3b c74a 65bd
000001d0: 8250 333d 167c eebc 045f 09be 3d7d 043d
000001e0: 0c93 eabd f54f c539 1e9d c53a f276 71bd
000001f0: 37de 50bc c2b1 2a3d 3ac3 003e 4a1d d2bd
-0.10240339 0.015648147 -0.029246302 -0.087026134 -0.09608787 0.063054666 -0.06976137 -0.02223308
0.078582056 -0.05853152 -0.058049925 -0.122685075 -0.002411348 0.015419978 -0.005289768 0.16194472
-0.10135442 -0.076929905 -0.020415468 0.02704582 -0.023818681 0.012991141 -0.035225432 -0.060598638
-0.08719545 0.016681809 0.062051438 0.002045888 -0.11686991 0.03553115 -0.14954907 -0.06112258
-0.033573873 0.06311241 -0.11014945 0.06505234 -0.12524714 -0.0982804 0.016761625 -0.08541046
0.024708312 -0.01544195 -0.03312363 -0.083176516 0.069727205 0.040092763 -0.08010345 -0.12541965
-0.050838035 -0.0010109904 -0.00787441 -0.012440195 0.057854686 0.10948138 0.038033627 0.045361433
-0.0062616533 -0.008645827 0.022469115 -0.012088138 0.0064846426 -0.031683795 0.007885021 0.0833287
-0.11394872 0.08648044 -0.09258388 0.06877803 0.049282506 -0.10216328 0.056377452 -0.0012274142
0.010731475 -0.02465157 -0.08586186 0.02199649 0.08408171 -0.019302746 0.043730974 -0.040709887
0.029791784 -0.05949876 -0.022861963 -0.0019632832 -0.09167496 -0.031110168 0.09443439 -0.023655802
0.023219327 -0.046892434 -0.01104585 -0.09917736 0.04663867 0.040299993 -0.0065550585 -0.016084041
-0.06220851 0.038196217 -0.071216196 -0.029502314 -0.2071801 0.03348601 -0.10624025 0.0072098663
0.07294899 0.02158531 -0.07144322 -0.065499194 -0.016615577 -0.100979105 -0.05015866 0.022287542
-0.12665597 -0.19889814 0.0072873095 -0.055979516 0.04377795 -0.029111903 -0.13415152 0.032346
-0.11453828 0.0003763434 0.0015076732 -0.058951326 -0.012748293 0.04167343 0.12574473 -0.10259493

network_body._body_endoder.seq_layers.2.weight f4 [128, 128]
00000000: fcc9 89bd 66c6 9ebd a972 b0bd b68d 1dbe
00000010: 0d9a 3cbe 7a03 a3bd 0f73 593d 801a 7b3d
00000020: cb04 6f3d a031 203c 301c cabd 2026 5cbe
00000030: 2d5a 433c 3ac9 95bd 2b61 b7bd ff4c 84bd
00000040: b41b f63d c17d 53bd 94f3 22be dfa8 ffbd
00000050: 9f1f 85bc 4911 a93d e53c 03bd 7921 c93d
00000060: 8819 0fbe 7d53 13bd 8260 9d3c ef16 a43c
00000070: bf70 d3bd 2b0d 24be 407a 013e 06f6 91bd
00000080: 122a b4b9 0962 f5bb 4ea4 9cbb 4d4a 9d3d
00000090: 819d 683d 21e3 30bc b569 3dbe 8d89 a4bd
000000a0: 589f 60be 0723 413e cb2e f0bc a080 803d
000000b0: 21ab 043e eac7 04be 20b7 253d 62dd 37be
000000c0: fa67 8f3c 8c30 813d 8902 aa3d 0e44 623d
000000d0: 1d67 b4bd 3757 89bd 6662 7d3d 63a1 ac3d
000000e0: 0016 24be 4da2 b53d bc7a 963d e5f1 85bd
000000f0: 4e29 7bbe c903 70be e703 c4bd c580 f9bc
00000100: 3823 ed3d b13f b83d c52e 743e 517e 963d
00000110: 8462 cd3d 6204 52be 16d9 013d d756 a6bc
00000120: 96b5 2fbd 2684 44be 06b7 06bd 86b8 3a3d
00000130: ec5e c53d 2937 81bd c9d7 95bd d62c d6bd
00000140: 4238 debc b9ba 88bc b415 24be 1b38 943d
00000150: fefd dd3c 7d3c 79bb 1e77 02be 9316 bbbd
00000160: a564 753d 9a71 11bd d2ff ddbd e717 babc
00000170: 97bc 533d 4391 ad3c c900 393d efb3 53be
00000180: 0f7c 01be 78a5 2a3d d390 9a3d 34f3 37be
00000190: c4ca 85bc 7964 17be 342a bd3d d076 ffbd
000001a0: 6f96 663d 8a83 72be 9100 193d a50b 673d
000001b0: c741 b13d 30a6 0f3d 2940 2ebe 0d4e 913d
000001c0: 4d1e be3d 89ed 96bc 7340 5fbd 2b7f be3c
000001d0: 5a3f acbd b3d2 e1bc 3ce2 0bbe 8248 11be
000001e0: e242 45bd 8c2a 273d b321 10be 5b74 003c
000001f0: b153 953b 3171 ed3d ab2b 113e 5b57 42bc
00000200: 8976 18bc ad39 1e3d f8e7 1a3c 8470 323e
00000210: 04dc 9c3d 8efb f6bd 676c df3d 544a 82bd
00000220: 7568 0c3e d327 e43d dd96 94bd 2be7 0bbd
00000230: 04d9 ea3d 5469 b63d 0e27 abbd 6f19 94bd
00000240: b1e3 fbbd defe 14bd fd23 9a3c f043 7d3c
00000250: 4101 163e dc1a 043e 09b7 073e 9754 c33d
00000260: bbba a83c d2a8 953b e636 41be 1ac2 bdbd
00000270: 7fc6 5bbd 4bfc 9a3c c644 03be 8a51 523d
00000280: 3866 35be 85ad a93d 005b e03d 1cb9 55bc
00000290: 2fe9 34bd ed09 3bbd 2a24 b6bc 7cab 0e3c
000002a0: 176d 93bd 64d0 7a3e debf 67bc 714c 1d3e
000002b0: ddc8 a83c af98 f53d 576a 743d 5c7a 35bd
000002c0: 0ec7 87bc 013c 2dbe c251 c0bd e7d4 b83d
000002d0: ab09 f23d b588 a0bd b57c 21bc 4a48 e53d
000002e0: b61c 9ebd 907b b8ba 23bd 83be 7bc5 b43d
000002f0: 07a4 acbc c3e7 41bd c2a0 823d 8fbd 66bd
00000300: 6101 2cbc 6f6d 8abc dae1 e0bd f859 4fbd
00000310: 892c 68bd 0f24 003e 5415 4f3c 1d8e d23d
00000320: a6d2 88bd 3d23 353b 0500 503e e1a8 34be
00000330: 3d38 30bc 015a 83bc 6e81 7d3e 8f5c e93c
00000340: 0dbc bdbd e762 04be ef6f b63d 78d4 933e
00000350: ef69 61bd b65b f73d c2d4 3bbe 0759 883d
00000360: d2c7 b0bd ead1 41bd 874b 23be 19e6 f33b
00000370: d355 9fbd 7bb9 0abe 7215 0ebd 25bc 2f3e
00000380: 7a98 a53d db2f 863e fceb 1ebe 0d15 0f3e
00000390: 19fa 33bc fb07 de3c 915f c2bc 62a1 35bc
000003a0: b114 be3c f561 003d 0f66 c13c 35dd 63bd
000003b0: d5db 3dbd d070 d3bd 5c05 623c a2e3 583d
000003c0: 9248 8d3d 9cfb db3d b845 e13d 9089 f1bd
000003d0: 454d 20be 825e f03c 0d96 893d 9270 babc
000003e0: cbf6 523d 62f1 8a3d 5122 233e e1ea 733e
000003f0: 81f8 39bd e1b8 29bd a434 0a3e f383 f53c
-0.067279786 -0.07752685 -0.0861562 -0.1538609 -0.1841814 -0.079596475 0.053088244 0.06130457
0.05835418 0.0097774565 -0.098686576 -0.21498919 0.011923355 -0.073137715 -0.0895408 -0.06459998
0.12017003 -0.0516336 -0.1591323 -0.124833815 -0.01625043 0.0825525 -0.032040495 0.098208375
-0.13974583 -0.035968293 0.019211058 0.020030467 -0.10324239 -0.16020648 0.12644291 -0.07127003
-0.0003436362 -0.0074884933 -0.004780329 0.076801874 0.056790832 -0.010796339 -0.18497355 -0.08034048
-0.21935785 0.18861018 -0.029319188 0.06274533 0.12955905 -0.12966886 0.040457845 -0.17955545
0.017505635 0.06308088 0.08301265 0.055240683 -0.0880873 -0.06706088 0.06186142 0.084292196
-0.16024017 0.08868847 0.073476285 -0.06540278 -0.24527475 -0.23438944 -0.09571057 -0.03045691
0.11578983 0.08996523 0.23845966 0.07348312 0.10028556 -0.20509484 0.03170117 -0.02030508
-0.042897783 -0.19191036 -0.03288939 0.04558613 0.096372455 -0.06309349 -0.073165484 -0.104577705
-0.027126435 -0.016690599 -0.16023904 0.07237264 0.027098652 -0.0038030439 -0.12740752 -0.09135165
0.059910435 -0.03550873 -0.108398095 -0.022716476 0.051693525 0.02118743 0.045166764 -0.20674108
-0.12644981 0.04166171 0.07547154 -0.17963868 -0.016332038 -0.14784421 0.09236565 -0.124738336
0.05629581 -0.2368299 0.037354056 0.05640759 0.08655124 0.035070598 -0.17016663 0.07094965
0.09283123 -0.018423812 -0.054504823 0.023253998 -0.08410521 -0.02756629 -0.1366052 -0.14187816
-0.048159488 0.04081206 -0.14075355 0.007840241 0.004557096 0.11593855 0.14176814 -0.0118616475
-0.009305605 0.038629223 0.00945472 0.17425734 0.07659152 -0.12059699 0.10909348 -0.06361833
0.13711722 0.11140408 -0.072553374 -0.034156006 0.11467174 0.089068085 -0.083570585 -0.072314136
-0.12299288 -0.036375873 0.018815989 0.015458092 0.14648916 0.12900871 0.13253416 0.095376186
0.020596853 0.004567244 -0.18868598 -0.092655376 -0.053656098 0.01891913 -0.12819204 0.051347293
-0.17714775 0.08285049 0.10954857 -0.013044622 -0.044167694 -0.045663763 -0.022234041 0.008707877
-0.071985416 0.24493557 -0.014144866 0.15361191 0.020603592 0.11992013 0.059671726 -0.044306144
-0.016574409 -0.16917421 -0.09390594 0.09024983 0.1181825 -0.07838575 -0.009856393 0.11195429
-0.0772032 -0.001407491 -0.25730237 0.08826729 -0.021074308 -0.047340166 0.06378318 -0.05633312
-0.010498376 -0.016897885 -0.10980578 -0.05062291 -0.056683097 0.12513755 0.012639362 0.10281012
-0.06680803 0.0027639412 0.20312507 -0.17642547 -0.010755596 -0.016034128 0.24756405 0.028486518
-0.092643835 -0.12928353 0.089080684 0.28873038 -0.055032667 0.12078039 -0.1834288 0.066576056
-0.08631863 -0.04731933 -0.1594678 0.0074432013 -0.077800415 -0.13547318 -0.03468842 0.17161615
0.08085723 0.26208386 -0.15519708 0.13972874 -0.010984921 0.027103415 -0.02372721 -0.01108584
0.023203226 0.03134342 0.023608236 -0.05563088 -0.046352226 -0.10324252 0.013795223 0.052951463
0.06898607 0.1074135 0.10999626 -0.11793816 -0.15654476 0.02934194 0.06718073 -0.022758756
0.05150489 0.06784321 0.1593106 0.23820068 -0.045403007 -0.04143608 0.13496643 0.029970145

network_body._body_endoder.seq_layers.2.bias f4 [128]
00000000: 7a6c e4b9 bc37 803d 3925 1b3d d9ca 0fbe
00000010: 352c 443c 2ef1 223d 6b68 8b3c 7e80 8a3d
00000020: 81ba 28bd 1382 6cbd 00ce bf3d 5793 afbd
00000030: 39ef 38bd d5d0 f6bc eb0f f2bc 47d6 a6bc
00000040: 11ec 6abd fd71 f2bb 8241 9d3d fa86 e8bc
00000050: 3644 323e 9946 1fbc 8b67 3ebd f9d4 183d
00000060: caa5 35bd 3770 cf3a dcd6 9b3d 3b22 793c
00000070: 4274 88bd 7d12 80bb 58f9 89bd 9592 8d3d
00000080: 3a3b 9e3d 51c4 bd3d 635d 7f3d 784c babc
00000090: 8fa1 d6bc 511d b73d 2351 af3d 2860 2c3d
000000a0: 81c2 c53d 245b a13c 0e08 a03c e215 9abc
000000b0: a7f0 133c 41e8 7bbb c95a 4f3d 15d2 203d
000000c0: 08e1 b13d 839c 5f3d fedf 0fbd f2d9 543d
000000d0: 4797 7e3d e352 c93d 13db 9abc a2ff 5e3d
000000e0: 96ae 5c3c 55fb d13d 8272 1c3d f3fc b13d
000000f0: 3cd6 293c 3842 1dbd d2e9 993d 00d9 bf3b
00000100: 5a28 fb3d dc8b 0fbd 7e32 153d 91a8 99bd
00000110: 35c8 e9bc 9d33 b8bb 97d0 38bd a755 9c3d
00000120: af65 9abc 3604 2ebd 6483 a43d 87a7 423d
00000130: fe0f 203c 8472 1cba 3a8a d93c 093e 8e3b
00000140: e06b af3d 6ea4 103c ee76 173d 843d 27bd
00000150: a485 cf3d 96e0 ba3d 66cb 823d 62ee 7c3d
00000160: c321 a73b c479 33bd 1faa 8fbd fd77 2b3d
00000170: e629 4d3d bab0 8b3d 645d b23d 3d36 683d
00000180: 56bb 023d fdf0 16be 4df8 40bd 99b0 453d
00000190: 1164 303d 4743 c03d 423b 7e3c b01d 8b3d
000001a0: 0a13 95bc 2dcb 5c3c 3dab 5d3d b832 b63c
000001b0: 3490 27bc 0e6b 183d 0c68 0b3d 4d0a c93b
000001c0: 83dd 333c 4aef a83b 1a5a 263d bf64 22bd
000001d0: 9610 4bbc 8fe1 74bc eb66 28bd 889b 383c
000001e0: db19 943a 091b 1a3d b707 3b3e a86c c339
000001f0: db2f cebd 9b44 023d ae5d 723d b36d 15bd
-0.0004356837 0.062606305 0.037877295 -0.14042224 0.01197343 0.039780788 0.017017564 0.06762789
-0.04119349 -0.057741236 0.09365463 -0.08573025 -0.045150016 -0.030128876 -0.029548606 -0.020365847
-0.057354037 -0.0073988424 0.0767851 -0.028384674 0.17408833 -0.009721422 -0.046485465 0.03731248
-0.044347562 0.0015826289 0.076093405 0.015205915 -0.066627994 -0.003908454 -0.06737012 0.06912724
0.0772614 0.0926596 0.06234492 -0.022741541 -0.026200084 0.089411385 0.085603975 0.04208389
0.09656239 0.01969678 0.01953509 -0.018809263 0.009029544 -0.0038437995 0.05062369 0.03926285
0.086854994 0.05459262 -0.035125725 0.05196566 0.062155988 0.098302625 -0.01890329 0.05444301
0.013469359 0.10253016 0.03819514 0.08690824 0.010366019 -0.03839323 0.07515301 0.005854726
0.12263556 -0.03504549 0.036425106 -0.075028546 -0.028537849 -0.005621387 -0.0451208 0.076335244
-0.018847315 -0.042484485 0.08032873 0.047523048 0.009769438 -0.0005967992 0.02655517 0.0043408913
0.085654974 0.008828266 0.036978655 -0.04083015 0.10132912 0.091248676 0.063864514 0.061750777
0.0051004603 -0.043817297 -0.0701487 0.041862477 0.050088786 0.06820817 0.08709219 0.05669235
0.03191694 -0.14740367 -0.047111798 0.04826412 0.04306418 0.09387832 0.015517058 0.06792772
-0.018197555 0.013476175 0.054118384 0.022240981 -0.010227252 0.03721147 0.034034774 0.006135261
0.0109781055 0.0051554786 0.04061327 -0.03964686 -0.012394091 -0.0149463555 -0.041113775 0.01126755
0.001129921 0.03762344 0.18264662 0.00037274254 -0.100677215 0.03180371 0.05917137 -0.03648157

action_model._continuous_distribution.log_sigma f4 [1, 2]
00000000: 2ae7 edbd e6a7 57be
-0.11616357 -0.21060142

action_model._continuous_distribution.mu.weight f4 [2, 128]
00000000: 1705 bdbc 13b4 033e 88d3 9bbd 07fa 233d
00000010: ed19 adbd 5638 cbbc 5828 783d 6415 8dbd
00000020: a615 03bd fabf ecbb 080e debd e49e 87bd
00000030: 4d48 edbc 888a 02bd 8b47 3c3d 9c9c afbb
00000040: 5e5c 12bd 5648 b2bc d0d2 173d b6e3 4fbc
00000050: 058a 4e3d a24f a1bd 65f8 ceba 0d0f ca3d
00000060: 8c7f 1cbd d50d 85bc 3782 6ebd 13ec 42bd
00000070: 8c72 513d 5a75 78bc f00a 4fbc acab b33d
00000080: a7a4 563d e747 003e 4944 fe3d 7fd8 43bd
00000090: 4c52 5bbd 27f8 a5bd a65b aabd 592f 2f3a
000000a0: 3a0e bcbd 743b 1dbd d233 66bb bfe3 2d3d
000000b0: b5af 7cbd 16ce cbbc 99e4 4cbd 6bb3 9cbc
000000c0: 4f9a 9fb8 82f4 99bd dae4 8cbb 20ef 14bd
000000d0: 9182 83bd 1915 a43d 4d5d 363d b025 7c3d
000000e0: 0c71 1dbd 365e fbbd 9c49 07bc 5043 9ebd
000000f0: 3d04 2ebc 16ec 49bd 975f 183e 73d0 34b9
00000100: 49ca 0fbe 147e 24bd 1256 813d d583 9f3c
00000110: 238b 843c 7556 0abd 516a cfbc 2ca5 0f3c
00000120: 5ea9 3abd b146 19bc 5352 96bc 3b50 65bd
00000130: 9cca 70bb 2640 2eba 6ad8 8cbd 5e36 b43c
00000140: 8f90 c83d 8193 88bd 4583 75bd c4be 03bd
00000150: c89b e6bb e03e 4dbd 1ddf 893c 0435 52bd
00000160: 7f0b 8dbd 5c25 47bd 293b af3c 826a b4bd
00000170: 69ce 32bc e44e 62bd 29ae 5dbd 9062 7e3c
00000180: 24d6 2fbd 3799 17bd 9b8d 3abc 3b86 8fbd
00000190: 0c55 c5bd 12d7 f9bd 04dd 8b3d 2103 17bd
000001a0: 5b0b 7bbc b3e1 64bb 306c 613d ec8b 88bd
000001b0: 8d56 93bc 5a19 943c 190c 3a3b 71ac b9bc
000001c0: ce36 88bd 2050 a9bd 10d8 363d 2bac bebc
000001d0: ef95 5cbd 416b 3bbc a21a 07bd cf6c 3a3d
000001e0: 29c5 e3bc a029 1e3d f90a 2d3d 149f 3b3c
000001f0: 2cb1 953b 5bce 8cbd d756 993d 08a6 bf3c
00000200: 0a68 843c 75ee a5bc da9f 62bd 6a2d a5bc
00000210: 268c 773d 2cba 9bbd 4295 b3bd 0427 d03b
00000220: 1e47 b7bc 7d01 60bd 30df 3abd 12f2 bd3c
00000230: a812 373d cc33 f03c b496 f03c 1341 2dbd
00000240: cf3d 4d3d 3a7e bebd 1b20 9b3d 880e 353d
00000250: 403e 3f3e afed 03bd b8fe 8c3c 995f ad3d
00000260: 13e5 4abd b4e0 b13c 64af 90bd b20b ebbc
00000270: 0995 5abd 1d44 983a 95f7 5bbd e32a 0fbd
00000280: 8b50 d43d 89c0 06be 127e 48bc e75d 743d
00000290: eb69 663c 0317 c43c af5d f33c e1d7 07be
000002a0: 0fd5 f7bc f9b4 3dbd 6955 d9bd 7155 863c
000002b0: 594d 043d d5e6 d83c c201 4a3d 3b44 5b3d
000002c0: 7341 b3bd 00b9 383d 431d 723b 09c1 8b3b
000002d0: 1b64 b43c 8fe7 8f3d b5ec bd3c 8a75 dcbd
000002e0: 30a8 bf3c 6668 1f3c 331c 593d 15bb 2e3d
000002f0: 757c 633d 4144 b33c be1b 17bd b74e b0bd
00000300: da89 4ebd 227b 503c c6e1 5e3d 497a 7e3d
00000310: dfa5 84bb fd45 11bd 408d 81bd fa65 c33d
00000320: 5b03 5cbc c7ef e53b a2a7 953d d5ce 6cbd
00000330: 18f6 913d 66ff 0a3d 734b 8ebd eb0b 8bbd
00000340: 1171 c8bd 16b1 2ebc 36ac bfbc 3733 3b3b
00000350: d574 e03d 8e87 0bbe bd2c 18be b051 a2bd
00000360: eb1a 19bd 8c37 b23b 87a9 283b a90d 0e3d
00000370: 481c 9d3d 409d 8f3d af24 cebd a2a1 0f3e
00000380: 2479 39bd a500 d5bc 8a4f 88bb 7fc3 e33d
00000390: 5a97 f6bc 2c42 773d e287 8cbd 48ea 013e
000003a0: 22b6 2b3c 37b0 ddbd 281d d93d 9ab7 15bc
000003b0: 9e1a 423d 8c5a ce3c e110 bebd a0c1 9d3c
000003c0: 93d9 2fbd a0c7 0abd bd2f 703d 5026 2ebc
000003d0: d7d0 edbc bf01 ce3c 42bf b73c 2c0a 483c
000003e0: 81b5 abbc c742 ccbd d6a6 153e 16b2 91bd
000003f0: 5412 783c 128c 463d acd7 d43d 2634 283d
-0.023073716 0.12861662 -0.07608706 0.040033367 -0.084522106 -0.024807137 0.06058535 -0.068888456
-0.032003067 -0.007225034 -0.1084252 -0.06622103 -0.02896514 -0.031870395 0.045966666 -0.0053592455
-0.03573262 -0.021763008 0.03706628 -0.012688568 0.050424594 -0.07876517 -0.001579058 0.09866152
-0.038207576 -0.016241947 -0.05822965 -0.04758842 0.05113463 -0.015164698 -0.012636885 0.08772978
0.05240312 0.12527429 0.12415368 -0.04781389 -0.05354528 -0.08103972 -0.08318262 0.00066827756
-0.09182401 -0.038386777 -0.0035126102 0.042453524 -0.061691005 -0.024878543 -0.050022695 -0.019128522
-7.610453e-05 -0.07517339 -0.004299742 -0.03636086 -0.06421388 0.080118366 0.044522572 0.06155938
-0.038437888 -0.12273829 -0.008257296 -0.077276826 -0.010621128 -0.049297415 0.14880215 -0.00017243791
-0.1404201 -0.0401593 0.06315245 0.019472042 0.016179627 -0.033773858 -0.02531925 0.008767407
-0.045571677 -0.009355233 -0.018349802 -0.055984717 -0.0036741858 -0.0006647132 -0.06877215 0.02199858
0.09793197 -0.06668759 -0.05993964 -0.03216435 -0.0070376135 -0.05010879 0.016830022 -0.05132009
-0.06886958 -0.048619613 0.021390514 -0.08809377 -0.01091347 -0.055251017 -0.05412117 0.015526429
-0.04292883 -0.03701135 -0.0113863 -0.07008024 -0.09635362 -0.121992245 0.06829265 -0.03686822
-0.015322532 -0.0034924566 0.055034816 -0.06667313 -0.017985607 0.018078495 0.0028388558 -0.022665234
-0.06651078 -0.08267236 0.044639647 -0.023275455 -0.053853925 -0.011439146 -0.032984383 0.045513924
-0.027803974 0.038613915 0.042246792 0.011451501 0.0045682397 -0.06875297 0.074872665 0.0233946
0.016162891 -0.020255307 -0.055328228 -0.020163257 0.06043639 -0.07603869 -0.08768703 0.0063523073
-0.022372779 -0.05468892 -0.045623004 0.023186717 0.044695526 0.029321574 0.029368736 -0.042298388
0.050107773 -0.093014196 0.07574483 0.04420331 0.1867609 -0.032209095 0.017211303 0.084654994
-0.04953487 0.021713592 -0.07064703 -0.0286921 -0.053364787 0.0011616979 -0.05370291 -0.03495301
0.10366925 -0.13159384 -0.012237089 0.059659865 0.014063339 0.023936754 0.029707758 -0.13265945
-0.030252961 -0.046315167 -0.10611994 0.016398164 0.032300327 0.026477257 0.049318083 0.053531867
-0.08752718 0.045098305 0.003694371 0.004264955 0.02202039 0.07026588 0.02318416 -0.10764606
0.023395628 0.00972948 0.05300541 0.042658884 0.055538613 0.021883132 -0.03689169 -0.08608764
-0.050424434 0.01272467 0.054414533 0.06212834 -0.0040480937 -0.035467137 -0.063257694 0.09540935
-0.013428534 0.007017109 0.07307364 -0.057814438 0.07127017 0.033934973 -0.069479845 -0.067893825
-0.09787191 -0.010662338 -0.023397546 0.0028564462 0.10959784 -0.13625929 -0.14860816 -0.07925737
-0.037379187 0.0054387506 0.0025735812 0.034680996 0.0767141 0.07012415 -0.100655906 0.14026502
-0.045281544 -0.026001284 -0.0041598724 0.11121272 -0.030101467 0.06036584 -0.06861855 0.12687027
0.010480436 -0.10824626 0.10601264 -0.009138012 0.047388665 0.02518966 -0.09280563 0.019257367
-0.042932104 -0.033881783 0.058639277 -0.010629252 -0.029030247 0.025147317 0.022430066 0.012209456
-0.020960571 -0.09973674 0.14614424 -0.07114045 0.0151410885 0.048473425 0.10392699 0.041065358

action_model._continuous_distribution.mu.bias f4 [2]
00000000: 465c 173c 9940 55bc
0.009238308 -0.01301589

exp_avg f4 [128, 8]
00000000: 7fd3 2b3b e525 ee39 0646 dfba 0a82 993a
00000010: dd27 ee39 0a0e 06bb 6025 8aba 08b4 83b9
00000020: 33b3 973b 5cae 2739 30c0 ff39 9a10 563a
00000030: 2c84 2739 0ccb 183a dcc0 483a 2e77 7c3b
00000040: 36d0 f7bc e839 2d39 da49 07bc 00e5 1e3c
00000050: f034 2c39 a8b9 04bc 5db3 14bc 6ef3 55bc
00000060: 9e14 5e39 f796 45ba de50 973b 7be6 72bb
00000070: 5942 45ba 289d 653b e9cc 5d3a ad81 f93a
00000080: 8c6f 94ba f3d9 263a fe59 8f3a 4c20 193b
00000090: e8be 263a 7a74 8eba e52d a7bb 7f87 343b
000000a0: 8856 b03c f7bd 1ebb 67ae 7c3c 93e5 90bb
000000b0: dab9 1ebb 063c 0e3c 0016 a43a c17d d43c
000000c0: e12d b13b 38a4 e238 fa3e 86ba 8e38 b7b9
000000d0: f05a e538 ec54 fc39 874f 9f39 e1a7 6ebb
000000e0: d40c 6e3b 24ad 0a3a 0c2f 3cbb 1385 973a
000000f0: 18ab 0a3a de5b 36bb b228 033b 3e97 d3ba
00000100: 246d a2bc 6f42 b8ba 825b 373b 4850 953b
00000110: 1a7c b8ba d447 d3ba 6ba7 34bc e2c3 023c
00000120: fd30 adbb 3ca6 9fb9 4afd 123b b4ee 203b
00000130: 7caf 9fb9 f695 c73a 1597 55bb 8284 753b
00000140: 7cd7 45bc 92fb bdb8 1d8e e6ba c4d3 05ba
00000150: aa1b beb8 664b a1ba 222f 27bb 757b 86bb
00000160: c2cc 7c3a 1a2d 7e39 c801 8038 d1d9 9cba
00000170: 563c 7e39 0f84 a1ba 4656 08bb ff2a 9f3a
00000180: 7dd4 f5bc 2425 59ba 9000 a53a 405d 08bc
00000190: 28c8 58ba 182f 983b 5e10 91bc ebdd 29bc
000001a0: 7160 8b3b 8aac 8b3a c680 cebb 56b9 663b
000001b0: 10fc 8b3a df5c 11bb 0c40 4bbb bdf4 42bc
000001c0: 9176 a63b 552b adba 1cd5 5e3b 0a22 b73b
000001d0: 9d21 adba 6012 a3b9 8019 043c e010 ddba
000001e0: ff27 29bd 02c8 a9ba 50e0 b73a f5f0 853b
000001f0: 6a03 aaba 8266 04bb abfe 46bc 84c1 c6bb
00000200: f02e 663b 8e42 313a 8dbf 85b9 92d7 dc39
00000210: bb62 313a d974 eeba ce09 253b ceea 403a
00000220: 5744 87ba 5ec1 d139 68b0 a6ba 849a 9c3a
00000230: bac6 d139 13c4 26bb 97bb a7bb 3a9d 0e3b
00000240: 71df f2ba 9a72 c9b9 9cca c639 1fa2 073a
00000250: 6d29 c9b9 feb8 aa39 eecb 09bb 554f 78ba
00000260: e98b 9cbc 88d5 47ba d11f cc3b c03f 03bb
00000270: f8c2 48ba 5f88 503b fe2c b139 a6a0 c13b
00000280: d2ec c33a 44b2 ff38 9fec 9fba 0821 1a3b
00000290: 3ae1 ff38 027b 8fba 9b03 3e3b 9262 eaba
000002a0: 83de ac3c 0fdb 9eba ef07 123c 109e c33b
000002b0: adfb 9eba 3a8c 243a 1ea8 a63b c4eb ae3c
000002c0: 424f 18bb a502 d4ba 4c24 863b 128b d339
000002d0: 83a0 d3ba aff3 d13b d0a2 d8ba 980e 9e3a
000002e0: 9664 143b bc00 dbb8 213b 1a3a 7377 1f3b
000002f0: eef7 dab8 7528 c2ba fa3b b3b9 90bf 993a
00000300: 69f2 85bc 1204 3bba 5636 453b a811 783b
00000310: 8e75 3bba 804f 0fb9 d0a7 23bb a06c 583b
00000320: e15b e0bb 335b b9b8 9c76 6b3b b35d 2cbb
00000330: fc4f b8b8 b59f a2b9 e83a 8bbc f4a0 1b3c
00000340: aabc aabc 1468 01ba cdb1 043c 16a4 c73b
00000350: 907d 02ba c454 ecba f7f3 95bb 1aac 033c
00000360: 6f6c f13b 1a5e 1b3a 0260 15bb 8ad5 2d39
00000370: 918b 1b3a baa5 e4ba 8c17 8c39 e46a 1cbb
00000380: a51a 12bc 53fd 4e39 e67d 2dbb 72cf 733a
00000390: 53fd 4e39 104f 11bb 374f bbbb 0995 79bb
000003a0: 3fcf ad3c f380 ab3a 141f 95bb bc5d 673b
000003b0: 93bd ab3a 3563 93bb 5c7a 743b a00d 00ba
000003c0: 2f21 d93a 5037 9f39 9ef1 04bb 7dba 1a3b
000003d0: 4038 9f39 75d3 64bb 7ca3 57bb b568 203a
000003e0: 8aae 54ba b745 3e39 7090 243b 3e14 1e3b
000003f0: d807 4039 eaa3 513a 60f7 f53a 56bc 4dba
0.002621859 0.0004542313 -0.0017034418 0.0011711728 0.00045424598 -0.0020455145 -0.0010539703 -0.000251204
0.0046295165 0.00015991315 0.0004878058 0.0008165926 0.00015975599 0.0005828596 0.0007658133 0.0038523185
-0.03025065 0.00016520137 -0.008257354 0.009698153 0.00016422919 -0.0081009045 -0.009075967 -0.013058526
0.0002117925 -0.0007537449 0.0046177944 -0.0037063647 -0.000752484 0.00350363 0.0008461015 0.0019035839
-0.0011324747 0.00063648744 0.0010936854 0.0023365198 0.0006360845 -0.0010868453 -0.0051019066 0.0027546582
0.021525636 -0.0024222115 0.01542244 -0.0044218986 -0.0024219663 0.008681303 0.0012518764 0.02593887
0.0054070805 0.00010807108 -0.0010242157 -0.00034946617 0.00010936509 0.00048128457 0.00030386096 -0.0036415982
0.0036323564 0.0005290082 -0.0028714566 0.0011560045 0.0005289777 -0.0027825753 0.002001327 -0.0016143096
-0.019827433 -0.0014057885 0.0027978127 0.0045566894 -0.0014075071 -0.0016119429 -0.011026244 0.007981272
-0.005285381 -0.00030450698 0.0022428804 0.002455634 -0.0003045759 0.0015227187 -0.0032591273 0.0037463014
-0.012075301 -9.059081e-05 -0.001758996 -0.0005105103 -9.065059e-05 -0.0012305796 -0.002551027 -0.0041040727
0.00096435484 0.0002424013 6.1038474e-05 -0.001196677 0.00024245805 -0.0012322682 -0.0020803376 0.0012143551
-0.030008549 -0.00082834275 0.0012588669 -0.008323014 -0.00082695717 0.004644286 -0.017708 -0.010367851
0.00425344 0.0010656279 -0.006301972 0.0035205684 0.0010679979 -0.00221806 -0.0031013517 -0.0118991705
0.005080052 -0.0013211766 0.0034001535 0.0055887746 -0.001320887 -0.00031103473 0.00806272 -0.0016865991
-0.04129791 -0.0012953284 0.0014028642 0.004087562 -0.0012970988 -0.00202027 -0.0121456785 -0.0060655493
0.0035123192 0.00067619316 -0.00025510453 0.00042122282 0.0006766726 -0.0018192782 0.0025182846 0.00073592074
-0.001032005 0.00040007656 -0.0012717368 0.0011947905 0.0004001165 -0.002544646 -0.005118798 0.0021761195
-0.0018529725 -0.00038423092 0.0003791646 0.0005173999 -0.00038368572 0.00032562757 -0.0021026093 -0.00094722706
-0.019109683 -0.0007623066 0.0062293787 -0.0020027012 -0.0007658447 0.0031819565 0.00033793593 0.0059090434
0.0014947897 0.00012192552 -0.0012201256 0.0023518223 0.00012201299 -0.0010946693 0.0028993848 -0.001788216
0.021102196 -0.0012119728 0.008913024 0.0059697703 -0.0012129449 0.0006276999 0.005085959 0.021352656
-0.00232406 -0.0016175105 0.0040936824 0.00040348672 -0.0016145859 0.006407223 -0.0016528014 0.0012058793
0.0022642962 -0.000104428706 0.00058834447 0.0024332672 -0.000104412306 -0.0014813083 -0.00034186227 0.0011730064
-0.016350942 -0.00071340904 0.0030092201 0.003785232 -0.0007151001 -0.00013667159 -0.002497185 0.003302373
-0.0068468903 -8.8384746e-05 0.003592885 -0.0026300966 -8.788702e-05 -0.0003101804 -0.016995862 0.009498823
-0.020841915 -0.00049364683 0.008099032 0.0060925586 -0.0004977817 -0.0018030633 -0.004576202 0.008036638
0.0073676626 0.0005926803 -0.002279282 0.00016578115 0.0005933578 -0.001744441 0.00026720425 -0.0023867423
-0.008917485 0.00019740062 -0.0026472746 0.0009300626 0.00019740062 -0.002217237 -0.0057162303 -0.0038083217
0.021216987 0.0013084695 -0.004550824 0.0035303673 0.0013102762 -0.0044979104 0.0037304377 -0.0004884843
0.0016565676 0.00030368054 -0.0020285617 0.002360969 0.00030368753 -0.0034916077 -0.003290384 0.0006119118
-0.00081131666 0.00018145783 0.0025110506 0.0024120952 0.00018313469 0.00079971424 0.001876574 -0.00078481936

exp_avg_sq f4 [128, 8]
00000000: b93c 7f3a 4523 1e38 3a70 773a 61f2 2f3a
00000010: 8a63 1e38 e364 453a 32a8 b23a abd1 c63a
00000020: 6915 dc3a 6487 8f38 edee 953a 3dd0 a73a
00000030: a192 8f38 59d2 c23a 15cc ee3a 8cf9 0e3b
00000040: 2d8b 523b e215 ff38 7bd6 313b 4ce6 e43a
00000050: 3627 0039 db1a ce3a d1fe 8d3b f5bb a93b
00000060: 30d9 2c3a 4666 2438 b053 4b3a 0aef 2d3a
00000070: 7698 2438 2148 233a 2336 9c3a 3ec4 e73a
00000080: a14c 813b 57ab 2239 a45a 7a3b 9c37 0b3b
00000090: a4ee 2239 0397 483b 3e66 af3b 1a58 a83b
000000a0: 07e9 423c 9690 f839 bc45 1e3c d546 db3b
000000b0: 5d3a f939 98d0 0e3c 4003 4f3c 337f 943c
000000c0: e366 0f3a b578 b737 14f2 0a3a bcca be39
000000d0: c6de b737 8b09 e039 9bf6 4e3a d43b 0b3a
000000e0: 822e 823a f36f 4c38 858b 873a 193e 323a
000000f0: fa93 4c38 a6f6 4d3a 3786 c43a 9016 f33a
00000100: bb6c 8a3b f32b 3d39 ed45 893b 6a44 1c3b
00000110: 6d47 3e39 6637 423b 4979 d73b 6c59 c53b
00000120: e35e 663b 2ad8 fb38 5843 323b 1aa0 c93a
00000130: 43e0 fd38 6bd3 183b 8033 a73b a6d8 5a3b
00000140: b1fb a73b 9ad9 5139 a750 8d3b 1993 2b3b
00000150: 9ce6 5139 ceeb 753b e116 f43b 832b db3b
00000160: 482d 0e39 0119 d136 0a48 2539 ba7c d638
00000170: b94a d236 3c61 0439 5b29 5139 22d8 4539
00000180: 6c27 b63b f2ae 6a39 fc98 a33b b80b 713b
00000190: afb7 6c39 137f 443b 35dd df3b f776 353c
000001a0: cd11 dc3a 4d80 a338 8144 e43a 255c ac3a
000001b0: 3ac4 a338 35af a63a ad0f 443b d66b 293b
000001c0: 9c8d 583b 788b 0d39 a6dc 283b 7b02 dd3a
000001d0: 819e 0d39 7d21 0c3b e2bf a73b 19ba af3b
000001e0: 75ff 2d3c 121d dd39 703c 213c 5000 e33b
000001f0: 9e0e df39 17d8 dc3b 9fd2 483c adac 883c
00000200: 9549 323a 3d0a de37 9a9e 323a 5bca d839
00000210: a020 de37 7fd9 d939 f253 273a b6d9 983a
00000220: 7331 5539 b5e3 0f37 57c1 3939 f58b 0e39
00000230: 6c8a 1337 eac3 2c39 de2a a539 fba1 7c39
00000240: ae3b b639 5750 a737 fb58 013a 6468 c139
00000250: 535a a937 ac44 e039 7626 093a 36b4 343a
00000260: cae7 313b 7cd3 fa38 2bf5 223b e92d 123b
00000270: 083a fc38 8a1c 023b 90b2 993b 7e3b 903b
00000280: 0145 4f3a 4b31 1138 bb80 653a 173c df39
00000290: b857 1138 58f6 163a b5e5 953a 27e5 ae3a
000002a0: 1413 813b c0d7 3b39 a961 683b d58a 693b
000002b0: 5777 3c39 fa17 3f3b 515f 953b edf0 043c
000002c0: 37bd eb3a 8a34 a938 e9bf 023b 088d 9f3a
000002d0: 3807 aa38 6cdd c63a a646 5f3b d9af 3a3b
000002e0: ca91 1439 58cc c336 f7c9 0a39 7e47 bd38
000002f0: cada c336 edf9 f538 796d 7839 4254 5739
00000300: e997 6e3a e0f1 1738 2d3c 4d3a 9b34 4e3a
00000310: 5c41 1938 ed31 183a e65a a93a b4ed d83a
00000320: 3fd1 cf3a 2a5f 9538 8e30 d93a 00dd 8d3a
00000330: 195a 9638 0e75 953a 1f20 283b eaa9 263b
00000340: 68ac c73b a452 9139 1a49 c53b 2025 b23b
00000350: 2d3a 9239 d2f8 973b c354 333c 9e53 303c
00000360: 9c2d 3a3a a9dc 0038 8ca3 143a 8bd9 1f3a
00000370: 1e18 0138 2bec 223a 7d1d 883a 1ac8 753a
00000380: 3b01 523a 2291 1938 1cc9 423a 682d 233a
00000390: 8a48 1c38 5b71 0d3a 12df 7d3a d823 dd3a
000003a0: 764c be3b 2be1 7339 6257 a83b d84f 733b
000003b0: 911e 7439 b014 773b d465 c63b 7f20 223c
000003c0: 63cd 4139 c232 e936 c562 1039 4926 b138
000003d0: 3541 e936 9341 fc38 ed47 9a39 5bf7 8239
000003e0: d058 c93a d22f 9638 4101 c23a 8c4e 953a
000003f0: 3739 9638 0faf a53a f333 0b3b 036b 403b
0.00097365264 3.7702983e-05 0.00094390253 0.00067118375 3.776284e-05 0.0007529987 0.0013630448 0.0015168687
0.0016791049 6.84399e-05 0.0011439003 0.0012803149 6.846083e-05 0.0014863714 0.001821878 0.0021816222
0.0032126412 0.000121634235 0.0027135897 0.0017463653 0.00012221638 0.0015724556 0.004333355 0.005179877
0.0006593643 3.9195897e-05 0.0007756306 0.0006635046 3.9242637e-05 0.00062287046 0.001191799 0.0017682386
0.0039459025 0.00015513353 0.0038200999 0.0021242863 0.00015538424 0.0030607588 0.0053527644 0.0051374556
0.011896378 0.0004740997 0.009660181 0.0066917934 0.00047536465 0.008716725 0.012635052 0.01812706
0.00054703484 2.1871509e-05 0.00053003547 0.00036390673 2.1919037e-05 0.0004273172 0.00078950234 0.0005311344
0.0009932073 4.874165e-05 0.0010341263 0.00067994144 4.8775204e-05 0.0007856883 0.0014993612 0.0018546153
0.0042243875 0.00018040817 0.004189244 0.002384449 0.0001814642 0.002963507 0.0065757376 0.006022623
0.0035151772 0.000120088764 0.0027200785 0.0015382797 0.00012105752 0.0023319374 0.005102575 0.0033393293
0.0051264395 0.00020012856 0.004312593 0.0026180206 0.00020017702 0.0037524584 0.0074490164 0.0066885366
0.00013559044 6.231596e-06 0.00015762463 0.00010227547 6.2671866e-06 0.00012624724 0.000199472 0.000188679
0.0055588987 0.00022381151 0.0049926024 0.0036780667 0.00022575141 0.0029982969 0.00683179 0.011075727
0.0016789973 7.7963436e-05 0.0017415435 0.001315002 7.808996e-05 0.0012717011 0.002991657 0.0025851629
0.003304339 0.00013498764 0.0025766282 0.0016861701 0.00013505855 0.0021382265 0.0051193098 0.0053627607
0.010619988 0.00042174064 0.00984107 0.0069275275 0.00042544765 0.006739627 0.012257247 0.0166839
0.0006801126 2.646923e-05 0.00068137946 0.00041349497 2.6479654e-05 0.00041551513 0.0006383053 0.0011661563
0.00020331684 8.576481e-06 0.00017715 0.00013594313 8.794112e-06 0.00016476182 0.0003150319 0.00024092935
0.0003475821 1.9945363e-05 0.00049342186 0.00036889606 2.018843e-05 0.00042775774 0.00052318664 0.00068933086
0.0027146214 0.00011960321 0.002486537 0.0022305197 0.000120271055 0.0019853436 0.0046904758 0.0044016233
0.0007906706 3.46166e-05 0.0008754839 0.00042578645 3.465239e-05 0.0005758754 0.0011436256 0.0013343439
0.003939042 0.00017914083 0.00354586 0.003563573 0.00017973535 0.0029158578 0.0045584817 0.008114082
0.0017985468 8.068334e-05 0.0019950813 0.0012172768 8.107576e-05 0.001517219 0.003406921 0.002848616
0.0001416869 5.8352416e-06 0.00013235943 9.025539e-05 5.8369233e-06 0.00011729063 0.00023691905 0.00020535386
0.0009101616 3.622647e-05 0.0007829096 0.0007866115 3.6538913e-05 0.00058057794 0.0012920767 0.0016550333
0.0015855207 7.122599e-05 0.0016570257 0.001082331 7.1693394e-05 0.0011402683 0.0025653911 0.0025430867
0.0060935505 0.00027718127 0.0060206773 0.0054365546 0.00027890634 0.004637816 0.010945502 0.010762123
0.0007102133 3.0723084e-05 0.00056701223 0.0006097785 3.0778458e-05 0.00062150013 0.0010384765 0.0009375826
0.00080110476 3.6613208e-05 0.00074304803 0.00062247226 3.7260856e-05 0.00053956144 0.0009684424 0.0016871644
0.0058074547 0.00023258167 0.00513737 0.0037126448 0.0002328104 0.003770154 0.0060546193 0.009895443
0.00018482427 6.94985e-06 0.00013769705 8.447149e-05 6.951532e-06 0.000120285105 0.00029426758 0.00024979826
0.0015361551 7.1614646e-05 0.0014801399 0.0011391207 7.1632145e-05 0.0012640673 0.002124068 0.002936066

exp_avg f4 [128]
00000000: e525 6e3a 64ae a739 d839 ad39 f696 c5ba
00000010: f1d9 a63a f9bd 9ebb 3ca4 6239 2aad 8a3a
00000020: 7042 38bb 40a6 1fba 78fb 3db9 1c2d fe39
00000030: 2425 d9ba 88ac 0b3b 522b 2dbb fec7 29bb
00000040: 8d42 b13a 5fc1 513a 9672 49ba 88d5 c7ba
00000050: 44b2 7f39 0edb 1ebb a502 54bb bc00 5bb9
00000060: 1604 bbba 305b 39b9 0868 81ba 1a5e 9b3a
00000070: 53fd ce39 f480 2b3b 5037 1f3a b045 be39
00000080: 0e24 01ba 5a83 3d3a 26f3 5cb9 43b5 b5b9
00000090: 665e 143b b87a e139 4616 8f3a d5f1 fdba
000000a0: 9333 653b 36d8 2f3b 8f9e 91ba 40b8 2ab8
000000b0: a2dc b03b f8a6 923b 668d 9c3a ed89 82ba
000000c0: 5098 09ba dd77 42ba 105f 89b9 2dce 6f3a
000000d0: 93e1 b23b fce6 bf3a bac1 63ba 782a 073b
000000e0: c760 8dba 8785 083a 2c14 353a a1c6 7db9
000000f0: 0909 9239 001a b0b9 fb97 8f3a 4c37 2e3b
00000100: b6d9 cfb9 3431 6ebb 8356 0c3a 0065 f338
00000110: 473a beba a2f0 e8b9 5701 7dba f6fd 4e3b
00000120: 1dc1 b03a c5ff 1bba fbec 80b9 285d 9fbb
00000130: eb78 b3bb 9baf ad39 6555 8d3b c835 9bb9
00000140: 7090 87ba 166b 99ba 0f4a a0b9 f85c 83bb
00000150: cb6d 3bb9 886c 083a 9090 77ba 2a53 983b
00000160: f4b6 ddba 6e48 4abb 5f47 053a 50d9 5b3a
00000170: 7cef 893a baa4 10ba 2026 acb9 fc87 1fba
00000180: 829b 56ba 15d1 a13b a2b9 8fba 0f3a 1eba
00000190: a7ca 2a39 8d9d 2dbb 0ede db3a 017d 9cb9
000001a0: d04a da3a 8a90 ebb9 c60b bdba 31a2 b43a
000001b0: 5659 d6ba f9f1 c63a 1457 c03a 61af 523a
000001c0: 1031 ccba e560 de3a e885 333b b521 1a3b
000001d0: 324f faba 4196 cbba 70eb 32b9 ad81 92ba
000001e0: 4e92 f93a d82d 84ba 37bd d63a 621d 1f3b
000001f0: 1493 1e3a 60f9 56ba 4a75 0a3b 019c 7039
0.0009084626 0.00031982653 0.00033040228 -0.0015074897 0.0012729747 -0.004844424 0.00021614222 0.0010580171
-0.0028115772 -0.0006090142 -0.00018118124 0.00048480264 -0.0016566855 0.0021312553 -0.0026423526 -0.0025906558
0.0013523862 0.0008001532 -0.0007684616 -0.0015246132 0.00024385104 -0.0024239453 -0.003235021 -0.00020885741
-0.0014268185 -0.00017676945 -0.0009872923 0.0011853606 0.00039480123 0.0026169391 0.0006073611 0.00036291545
-0.0004926332 0.0007229351 -0.00021071415 -0.0003465806 0.0022639274 0.00043006777 0.0010916672 -0.001937444
0.0034973368 0.0026831753 -0.0011109876 -4.0702755e-05 0.005397395 0.0044754706 0.0011943995 -0.0009959318
-0.00052488316 -0.0007418374 -0.00026201503 0.0009147849 0.0054590194 0.0014640982 -0.00086882303 0.0020624679
-0.0010786288 0.00052078854 0.0006907608 -0.00024201955 0.00027854022 -0.00033588707 0.0010955328 0.0026583252
-0.00039644324 -0.0036345245 0.00053534674 0.00011605956 -0.0014513218 -0.00044429774 -0.0009651384 0.0031584478
0.0013485287 -0.00059508934 -0.00024590627 -0.0048634 -0.005477061 0.00033127968 0.0043131583 -0.00029603974
-0.0010342728 -0.0011704888 -0.00030572756 -0.0040088855 -0.00017874611 0.00052041607 -0.0009443844 0.004648586
-0.0016915486 -0.0030865925 0.00050841825 0.0008386569 0.0010523642 -0.000551771 -0.00032834802 -0.0006085632
-0.00081866246 0.0049382546 -0.0010965357 -0.0006035873 0.00016287957 -0.0026491613 0.0016774551 -0.00029847774
0.0016654376 -0.00044930383 -0.0014423064 0.0013781247 -0.0016353528 0.0015178315 0.0014674389 0.0008036998
-0.0015578587 0.0016966133 0.0027393047 0.0023518626 -0.0019097088 -0.001553245 -0.0001706311 -0.0011177562
0.0019040795 -0.0010084463 0.0016383295 0.0024278988 0.0006049138 -0.0008200612 0.0021127039 0.000229463

exp_avg_sq f4 [128]
00000000: 4523 1e39 6587 8f39 e215 ff39 4766 2439
00000010: 56ab 223a 9690 f83a b578 b738 f66f 4c39
00000020: f32b 3d3a 28d8 fb39 9ad9 513a 0119 d137
00000030: f0ae 6a3a 4e80 a339 788b 0d3a 121d dd3a
00000040: 3e0a de38 b5e3 0f38 5850 a738 7cd3 fa39
00000050: 4b31 1139 c0d7 3b3a 8a34 a939 59cc c337
00000060: def1 1739 2a5f 9539 a452 913a a9dc 0039
00000070: 2291 1939 2ce1 733a c232 e937 d22f 9639
00000080: e276 1c39 4e2c eb3a c83b 6938 493b d03a
00000090: db03 043a 08aa 9138 eab3 7339 1add 5e38
000000a0: 95e4 9f39 d5b6 ee39 a68e 053a 7c42 8e39
000000b0: 03fa fa3a c1ad 1f3a f9fd 3339 f6a2 0c39
000000c0: 2106 4839 f593 cc39 0924 e739 2d7a de39
000000d0: 8775 d03a 3068 1f3a 2678 aa39 d250 953a
000000e0: 89b1 1b3a e52e 8339 508b 4a3a d885 2939
000000f0: 9e5d 9039 2c1b 5039 dac1 bd38 23d6 063a
00000100: 52fd 9c39 5746 c03a 72fe 8138 dcec be3a
00000110: 79c5 063a 807c 1638 fc82 cc39 fd17 6d3a
00000120: de0c 4439 64b9 5c39 8d19 a939 074f b63a
00000130: 8690 da3a ccb0 bd39 e9ff 703a 9d58 483a
00000140: 3bc4 4b3a b304 8938 bf2e 2a39 bbc8 023a
00000150: c5bf 3238 4404 a339 902d df3a 8276 5a39
00000160: 01a9 ec39 8362 5839 3fc9 c339 a5ae be39
00000170: 09c3 643a 17b7 403a 49b3 0a3b adfc 573a
00000180: 875d 4f38 c496 483a e657 9238 1734 5139
00000190: e251 8437 c104 9f39 91ab a839 42d2 5e39
000001a0: a2af f239 1fe8 7b39 2ab5 1639 85a5 db39
000001b0: 6edd 9339 8ffe d638 57de 1739 666b 2139
000001c0: a571 4739 8330 1439 464f 0e3a 51a8 1d39
000001d0: 98d7 8e3a d975 0639 1b27 bb37 6107 3a3a
000001e0: 75e1 4839 003d c438 b12f cb39 efae 1a39
000001f0: f953 183a 64cf 283a 6af7 893a ea2d 1939
0.00015081193 0.00027375962 0.00048653694 0.0001567836 0.00062053406 0.0018963988 8.7486034e-05 0.00019496665
0.0007216327 0.000480355 0.00080051424 2.4926385e-05 0.00089524593 0.00031185377 0.00053995056 0.0016869626
0.00010587693 3.4305926e-05 7.978146e-05 0.00047841284 0.0001384664 0.0007165633 0.00032273337 2.3340968e-05
0.00014490585 0.00028490397 0.0011087251 0.00012289234 0.00014645283 0.00093032676 2.77994e-05 0.00028645858
0.00014921607 0.0017942281 5.5607205e-05 0.0015886809 0.0005035975 6.9458096e-05 0.00023241309 5.313484e-05
0.0003049715 0.00045531118 0.00050948036 0.00027133885 0.0019147996 0.000609126 0.00017165382 0.00013412148
0.0001907577 0.0003902015 0.00044086602 0.00042434168 0.0015904167 0.0006080894 0.00032514444 0.0011391884
0.00059392356 0.00025021206 0.00077264477 0.00016166957 0.0002753557 0.00019846548 9.04833e-05 0.0005143603
0.00029943377 0.00146694 6.1985935e-05 0.0014566439 0.000514112 3.5878737e-05 0.00039007503 0.0009044407
0.0001869681 0.00021049898 0.0003225323 0.001390905 0.0016675151 0.00036180613 0.0009193407 0.0007642599
0.0007773076 6.5335444e-05 0.00016229878 0.00049890176 4.2617106e-05 0.0003109296 0.0017027128 0.00020834248
0.00045139345 0.00020636064 0.00037343238 0.00036369744 0.0008726572 0.0007351501 0.0021163991 0.0008239251
4.943975e-05 0.00076518604 6.978195e-05 0.00019951198 1.5773756e-05 0.00030330385 0.00032171284 0.00021249897
0.00046288694 0.00024023697 0.00014372604 0.00041894257 0.00028203003 0.000102517304 0.0001448331 0.00015394166
0.00019020455 0.00014132452 0.0005428683 0.0001503539 0.0010897992 0.00012823138 2.2310347e-05 0.00070964365
0.00019157476 9.3573704e-05 0.0003875471 0.00014751752 0.0005810853 0.0006439595 0.0010526006 0.00014608321
