Assets/results/RL2/RollerBall/RollerBall-110063.onnx (onnx, 76085 bytes, 7 tensors)

network_body._body_endoder.seq_layers.0.weight f4 [128, 8]
000000 88 7b d0 3e 95 c4 92 3e 8f 74 84 3e ce e0 85 3e
       0.40719247 0.28665605 0.25870177 0.26148075
000010 95 08 52 3e 63 f2 74 bf 06 91 67 3d d6 ad 92 bd
       0.20511086 -0.9568235 0.05653479 -0.07162063
000020 a8 46 b5 3e 7e e4 25 3e ad 0d df be 41 74 97 be
       0.3540547 0.16200444 -0.4356512 -0.29580882
000030 d9 71 05 be 19 0c 4a bf af 7b 40 be 5c 94 f9 be
       -0.1303171 -0.7892471 -0.18797182 -0.48746002
000040 8a 55 81 3e 14 fe e7 bd d8 b8 ca 3e f4 80 2d 3f
       0.25260574 -0.113277584 0.3959415 0.6777489
000050 ed eb 82 be f7 9c 0e bf 7e b6 2e 3e 2c ab 11 3f
       -0.25570622 -0.5570826 0.17061803 0.5690181
000060 8d f1 06 3c 60 2d b1 3e 4e 8f 8d be b7 fa f8 bd
       0.008236301 0.3460493 -0.27648395 -0.12157195
000070 2e c7 9b 3e 35 15 8c 3e de e8 b4 3d 63 0e ef 3d
       0.304254 0.2735993 0.088334784 0.11672666
000080 f1 97 2b be b9 e0 13 bc 57 b1 00 be 0d 11 93 3d
       -0.1675718 -0.009025746 -0.1256765 0.071809866
000090 31 06 4a be 71 5e fd 3e 0d d7 51 be c3 23 04 bf
       -0.19728924 0.49486116 -0.20492192 -0.5161707
0000a0 c1 41 7d be 92 b7 d1 bb ce 05 44 bf a1 5f f7 3e
       -0.24732114 -0.006400057 -0.7657136 0.48315147
0000b0 e2 1b 82 3d e3 80 68 3d 86 a0 0e 3f 4d 17 94 be
       0.063529745 0.05676354 0.5571369 -0.28924027
0000c0 07 54 39 bf dd 1f 89 3d 52 d8 c6 3e 8e 48 7a 3e
       -0.7239384 0.066955306 0.38836914 0.2444174
0000d0 23 66 93 be 70 2a 3d 3e 8a 71 db bc c0 46 97 bd
       -0.28788862 0.1847322 -0.026787538 -0.07386541
0000e0 72 df 29 be b6 8c 1b be e3 52 3b be 78 3e 90 3e
       -0.16589144 -0.15190396 -0.18293338 0.2817266
0000f0 05 dd 6f 3f 7d 1b 01 3f 6f ea 21 be c2 85 dc bc
       0.93696624 0.5043257 -0.15812086 -0.02691925
000100 88 81 9e 3e 1e e6 ff be dd c3 15 be 0a 22 9c 3e
       0.309582 -0.49980253 -0.14625497 0.3049472
000110 bc a9 93 bd 41 26 bf be b0 87 1b bf 7b 85 81 3e
       -0.07210109 -0.37333873 -0.6075392 0.2529715
000120 39 d1 93 be d9 0b c0 be ef b5 eb 3e 75 f1 d8 be
       -0.28870562 -0.3750904 0.46037242 -0.42371717
000130 ae d2 bb be 94 89 31 be 3a 49 61 3c a3 a9 37 bf
       -0.36684173 -0.17337638 0.013750369 -0.7174322
000140 fe 26 77 3e b0 71 b8 bd 14 80 8b be 4f 28 22 be
       0.24135968 -0.09006059 -0.27246153 -0.15835689
000150 60 d6 08 3f 3c 11 75 be 01 ab 68 be df de 66 be
       0.5345211 -0.23932356 -0.22721483 -0.22545956
000160 8c e9 03 3e 16 d2 01 3e 17 7a 96 bc 0a dd a6 bd
       0.1288206 0.12677798 -0.018368764 -0.081476286
000170 be 9b fa 3d 97 8b 9c 3c 91 bf 81 3e cb bf ef 3e
       0.12236737 0.01910953 0.25341466 0.46826014
000180 06 52 38 3e 75 3c 03 bf ee 7e 80 3e 61 9b 17 3d
       0.1800004 -0.51264125 0.2509684 0.037013415
000190 62 3a 05 3e 43 c8 93 3d 1f 16 14 bf fc 95 67 3e
       0.13010553 0.07215931 -0.57846254 0.22615808
0001a0 9a d2 d3 3e a1 87 d1 bd 8e 46 c4 3d 29 70 51 3e
       0.41371614 -0.10230947 0.0958377 0.20452942
0001b0 37 fa 55 3f fa 02 00 3e c3 f4 03 bd 8c 7f c3 3b
       0.8358492 0.12501135 -0.032215845 0.0059661325
0001c0 9b 5d 42 3e c5 ba fc 3b 28 2a a1 be 6a a8 3f 3d
       0.1898102 0.0077126944 -0.31477475 0.04679147
0001d0 b1 21 88 3e 00 d0 35 3f 75 c3 de 3e 25 50 62 bd
       0.26588205 0.7102051 0.43508497 -0.055252213
0001e0 83 72 b5 bd ab 94 a1 3c 8d b6 64 be 2a 2b 31 be
       -0.08859732 0.01972421 -0.22335263 -0.17301622
0001f0 cd 94 6d bf e4 f6 bf bd 3c 57 09 3e a9 e0 d9 bd
       -0.92805177 -0.093732625 0.13412184 -0.10638554
000200 36 dc c7 be a3 18 97 3e bb 4b e6 bb d7 0d eb 3d
       -0.39035195 0.29510984 -0.0070280707 0.11477249
000210 e0 ec 0c be d6 91 f9 3d a3 d2 88 3e d0 7a ff 3d
       -0.13762236 0.12186019 0.26723203 0.124745965
000220 90 08 79 be 70 e4 49 be ca f7 67 3d 2f c1 26 3e
       -0.24319673 -0.19716048 0.056632794 0.16284631
000230 a6 00 e3 be 54 71 66 3e b7 fa ca 3e b7 83 b1 be
       -0.44336432 0.22504169 0.39644405 -0.34670803
000240 d8 5b 3d be a6 4d 12 be 25 23 01 bf e3 36 74 3f
       -0.18492067 -0.14287433 -0.5044425 0.9539625
000250 6f df 4d 3e 21 dc 20 be c7 14 16 bf 71 a5 12 3d
       0.20104764 -0.15708973 -0.58625454 0.03580231
000260 0e d5 bb be cf e0 c4 3e 76 ff 79 bd ff ba d2 3d
       -0.36685985 0.38452765 -0.061034642 0.10289573
000270 e6 ca a8 3c d0 e5 9b 3d 9a 4f c1 be f0 da 03 3f
       0.020604562 0.07612193 -0.37756044 0.5150595
000280 5c 9c 17 3f 67 92 fe bb ff 85 98 bd 6b 8a d3 3e
       0.5922296 -0.0077689174 -0.07447433 0.41316542
000290 db f8 a7 3e 91 c8 e4 3d d7 66 84 bd 3d b2 71 be
       0.3280705 0.111710675 -0.06464928 -0.23603149
0002a0 ca c2 c6 bd c6 3a 45 be c6 d5 3b 3e c0 d1 c1 be
       -0.09705122 -0.19260702 0.18343267 -0.3785534
0002b0 b9 03 ba be 86 92 9a 3e a8 e2 0f 3e b4 70 6c be
       -0.36330965 0.30189914 0.14051306 -0.23089868
0002c0 b1 b5 9d 3d 72 8e 0e be 8c 43 1b be 2d 79 ba 3e
       0.077006705 -0.13921526 -0.15162486 0.36420575
0002d0 a7 49 3b 3e 4b e7 3e bf f1 db 27 3d 20 7e 30 bd
       0.18289815 -0.74571675 0.040981237 -0.043089032
0002e0 89 96 b6 bd f9 a4 84 3e 8a 86 92 bd ec 62 c6 be
       -0.08915431 0.25907114 -0.071545675 -0.38747346
0002f0 5e 6d d9 bd ca 74 23 3e a5 0a 95 be cd e7 3d 3e
       -0.10616563 0.1596252 -0.29109684 0.18545456
000300 b8 d5 96 3e ae dc 1f be da a3 51 bf 9c 15 08 bf
       0.2945993 -0.15611526 -0.8189064 -0.53157973
000310 51 e1 85 bd 84 4b 5d 3b fa bd 0c 3f a4 77 9a be
       -0.06537116 0.0033766935 0.5497738 -0.30169404
000320 f3 ba 2b 3f de f0 b8 bb 2f a2 36 3f f4 f1 cb be
       0.67082137 -0.005643948 0.7134122 -0.39833033
000330 1a 81 24 3e 1d 85 35 bf 9b 2c c8 3e c0 2b 7d 3e
       0.16064873 -0.7090624 0.3909653 0.2472372
000340 77 5a a2 3e 41 7f 73 3d 0d 0f ba be 29 97 8b bf
       0.31709644 0.05944753 -0.36339608 -1.0905505
000350 8d ab 81 be 4f 09 ab 3d e5 b7 8c be 7e 5b 1b 3e
       -0.25326195 0.08351385 -0.2748405 0.1517162
000360 9a d8 92 3d c1 51 8d be e5 80 62 be 49 c1 7c be
       0.0717022 -0.27601436 -0.22119482 -0.24683107
000370 55 dc f9 3e 7f 47 f6 3d 51 07 79 3e 77 e5 bc 3c
       0.48800912 0.120253555 0.24319197 0.023058636
000380 c5 90 80 be 9c e4 8b bd cb 65 ed bd 94 ed fb 3e
       -0.2511045 -0.06830713 -0.11591681 0.49204695
000390 09 2d a0 bc 6c 87 ba 3e 36 0c e7 bd 1c 1f 7d be
       -0.019552724 0.36431444 -0.11281626 -0.24718899
0003a0 af de 00 3f 63 f3 a5 bc b0 cc 2c be dc 1b c0 3e
       0.5033979 -0.020257657 -0.16874957 0.37521255
0003b0 b0 7f 5c 3e ca 97 cf 3e 22 92 03 be 72 29 b1 3e
       0.21533084 0.40545493 -0.12848714 0.34601933
0003c0 27 53 5c bf f0 da e6 3e 57 23 2a 3f 82 c8 b2 bd
       -0.8606438 0.4508891 0.66460174 -0.0872965
0003d0 b7 cf 7c 3d 7e 4e 54 bf dc 3a 95 bc 44 d7 cf 3b
       0.06172153 -0.8293227 -0.018216543 0.0063428003
0003e0 25 d2 f1 3e 56 3f b3 bd 70 b8 15 3e 18 56 b8 be
       0.4723064 -0.08752315 0.14621139 -0.36003184
0003f0 f3 da 7e be ff 2d 11 3f f8 0d 93 bd 03 07 ee 3c
       -0.2488821 0.5671081 -0.07180399 0.029056078

network_body._body_endoder.seq_layers.0.bias f4 [128]
000000 3c 16 d9 3c 5c 64 0f 3d 2a e2 d8 bd 99 cf 2e 3d
       0.02649986 0.03500782 -0.10590012 0.04267845
000010 f3 44 5f bb 02 81 ce 3c 78 6d 93 3d 95 ce ce 3d
       -0.0034068197 0.025208 0.07198614 0.10097996
000020 d3 f5 fd 3c ba 51 16 3d bb fa 55 3c ce 25 78 bc
       0.031001007 0.036699034 0.013060267 -0.015145732
000030 f1 5b a2 bc 6d eb df bc 77 f2 c7 3b c2 32 1e be
       -0.019819232 -0.02733394 0.006101902 -0.1544905
000040 a2 b9 d6 3d 91 95 41 3d 7d d9 8a bd 5b 2a 03 3d
       0.104846254 0.04726178 -0.06779764 0.032022815
000050 6a 6c 03 bd 27 f6 0b bc 12 83 70 bb 07 f8 48 3d
       -0.032085814 -0.008542574 -0.0036699218 0.049064662
000060 a4 55 28 b8 ef 31 8b 3b 49 a6 fe 3c 4e bf 04 bd
       -4.013408e-05 0.004247896 0.03108515 -0.032409005
000070 51 66 10 3c 9e 24 85 bd a0 6e c2 3d c5 39 c2 bc
       0.008813457 -0.06501125 0.09493756 -0.023709187
000080 4f a0 5b 3c f5 97 a0 3c 0c a3 97 3d ec 7e 79 3d
       0.01340492 0.019603709 0.074041456 0.060912058
000090 60 6a 28 bd 81 28 28 bc 5d c0 8e 3d 2f 27 bd 3c
       -0.041117072 -0.010263563 0.06970284 0.023089973
0000a0 cd 67 23 3d c1 d5 79 bd bd 07 21 bc 2c b7 07 bd
       0.039893914 -0.060994867 -0.009828505 -0.03313367
0000b0 d5 ab 82 3c 81 45 87 bc fe fe 19 3d 0f f2 f5 bb
       0.015951077 -0.016512634 0.037596695 -0.0075056623
0000c0 51 f7 2f 3d 72 7b 72 3d 53 03 dc bc 80 24 08 3e
       0.04296047 0.059199758 -0.026857054 0.13295174
0000d0 b8 4a 10 bb 2d d7 5c 3a 5e d2 59 bd 06 f2 2b bd
       -0.0022017192 0.00084243977 -0.053179137 -0.04197886
0000e0 6d f9 0c bd 52 04 44 bb be e5 5a 3c d5 84 91 3d
       -0.03441756 -0.0029909802 0.013360439 0.07105414
0000f0 fd 5b e8 3b 0b 06 5e 3d bb 15 01 3e 95 32 a7 3c
       0.007091044 0.05420498 0.12605946 0.020409862
000100 5f 7c 85 bd 60 a5 cd bc 4f 89 15 bc 66 5a b1 bc
       -0.065178625 -0.025103271 -0.009126975 -0.02164955
000110 0d 84 89 bd a6 6b ab bc 62 6e 4d bd 10 91 90 bc
       -0.0671464 -0.020925354 -0.050154097 -0.017647296
000120 65 2b d6 bc 94 ec 7e 3c 00 57 bb 3c 62 54 98 bc
       -0.026143739 0.015559334 0.022868633 -0.018594924
000130 5f 08 c1 3b 1d 27 4c bc 5c 7b a2 bd ea a1 c9 3c
       0.0058908905 -0.012460497 -0.07933685 0.02461334
000140 8a e7 db 3d 27 dd dd 3b d3 d2 a4 bc 2d e0 f2 3c
       0.10737522 0.006770748 -0.02012006 0.029647911
000150 15 a7 5b 3c dc a2 fb 3c d4 f3 8f ba 8e 9b 60 3c
       0.013406535 0.030717306 -0.0010982701 0.013708962
000160 d2 7c d3 3d b3 83 df 3d f0 d5 8a 3d a9 e6 85 3d
       0.10326542 0.109137915 0.067790866 0.065381356
000170 c6 34 cf bd 6d a0 1b 3d 53 48 ed 3d 64 bb bb 3c
       -0.101174876 0.03799479 0.115860604 0.022916503
000180 8c 43 d3 3d a2 85 85 3d 3d 04 6c bd 3e d9 ee 3b
       0.10315618 0.06519629 -0.05762123 0.007289081
000190 11 3f 32 bd 16 81 5a bd 24 4f 94 3c 25 88 7c bd
       -0.043517176 -0.053345762 0.018104143 -0.061653275
0001a0 01 79 b8 bd 92 99 d9 bc ba 0c 0c 3d 7a 3a 53 bb
       -0.09007455 -0.026562486 0.034191824 -0.00322309
0001b0 c2 77 1a 3c be e9 9f bc 68 a3 8a bc 9e b3 51 3d
       0.009427967 -0.019520637 -0.016923621 0.051196687
0001c0 05 e5 61 3d 3f 58 1f bd a2 83 e5 bc bc 2a 0d 3d
       0.05515005 -0.038902517 -0.028016869 0.034464583
0001d0 04 1d 6e 3d 7f fc a6 3c 6c d3 5e bc 38 b5 a9 3d
       0.05813314 0.020384071 -0.013600212 0.08286518
0001e0 2a a8 b3 bc 96 9d 62 3c 87 66 15 bd 43 98 b0 3d
       -0.021930773 0.013831517 -0.03647473 0.086227916
0001f0 5b f0 51 3d c8 c4 7a 3c 6d d2 2a 3c 87 6f 68 3b
       0.05125461 0.015305705 0.010426146 0.0035466866

network_body._body_endoder.seq_layers.2.weight f4 [128, 128]
000000 34 9c e9 3c c0 aa 2e 3d 85 55 77 bd 83 b5 c4 bd
       0.028516866 0.04264331 -0.060384292 -0.09604933
000010 18 54 a3 3c df c9 4c bd 2a 34 af 3d 56 5f d2 bd
       0.01993756 -0.049997207 0.085548714 -0.1027209
000020 37 48 74 bd 96 bb fc 3d dd 09 9a bd ed 0d 57 be
       -0.059639182 0.12340467 -0.075214125 -0.21001406
000030 59 65 e8 3c fb 2c 62 3d 77 bb 22 bc 75 0e fc bc
       0.028368639 0.055218678 -0.00993239 -0.030768612
000040 72 e3 c2 3c 5c c8 b7 bd 19 1e 90 bc 90 a7 a5 bd
       0.023790095 -0.089737624 -0.017592477 -0.08088601
000050 ef d4 f8 bc ef a9 0c be 9f e6 a4 3d 39 43 0b be
       -0.030374972 -0.137367 0.080518 -0.13599862
000060 6f 79 f7 3d a8 c9 30 3e ac e0 a8 bd dd c6 73 3d
       0.120837085 0.17264426 -0.08245978 0.059515823
000070 48 4d 9f 3d a5 e8 6a bd ad 73 86 3e 6d 8b c2 3c
       0.07778412 -0.057350773 0.2626013 0.023748124
000080 5b 9e 66 3d 74 88 b8 bc 45 f1 90 bd b8 8b 1d 3e
       0.056303363 -0.022526003 -0.070772685 0.1538533
000090 18 27 25 3e 1b 20 1c 3d 11 86 13 be 15 ff 16 3d
       0.16128194 0.038116556 -0.14406611 0.03686436
0000a0 7a 46 0d 3b 19 42 a5 bd 68 51 c2 bd b1 40 43 3e
       0.00215569 -0.08069248 -0.09488183 0.19067647
0000b0 b2 e2 86 bd 49 7b 12 be 4e f0 a0 bd 3d 8a 28 3e
       -0.065862074 -0.14304842 -0.078583345 0.16458984
0000c0 a0 31 b0 3d e1 83 a8 3d d8 b9 db 3d 2d 03 2c 3e
       0.08603215 0.08228279 0.10728806 0.16798086
0000d0 94 71 b6 3d 9a 25 78 bd 60 b6 a9 3c 0c 96 43 be
       0.08908382 -0.060582735 0.020716846 -0.19100207
0000e0 6d 42 e9 bb 30 28 07 be cc 54 55 3d 4b 07 0f bc
       -0.0071185143 -0.13198924 0.05208282 -0.008729766
0000f0 ff f1 9d bb 6e ac cb 3d 85 0b 53 bd a4 bc d4 bd
       -0.004820108 0.09944998 -0.051524658 -0.10387543
000100 e5 22 18 3e a8 22 9c 3d 48 cd a1 bd fd 64 9b bd
       0.14857061 0.07623798 -0.079004824 -0.07587621
000110 fa 63 2a bd 36 c9 2d be e8 b1 c4 3d 46 cb 0d 38
       -0.04159925 -0.16971287 0.096042454 3.3806333e-05
000120 9c cc a9 3d 11 3b 82 bc ca fe e1 3d f0 24 61 bd
       0.08290979 -0.015897306 0.11034925 -0.054966867
000130 6b d5 97 bd 68 55 50 3d 49 17 41 bd 93 4d 0a be
       -0.07413753 0.0508627 -0.047141347 -0.13506155
000140 3c bf e9 3d 23 45 d5 3c ae 33 e0 3d ff 33 a6 3d
       0.11413428 0.026033944 0.10947357 0.08115386
000150 f8 9e 00 3d 7e ef f0 bc d8 0b 6b bc 7d f0 ae bd
       0.031401604 -0.029411074 -0.0143460855 -0.08541963
000160 e3 eb 0e be cf 69 5b 3d 6d 19 b3 be 8b 3d 97 bd
       -0.13957171 0.053567704 -0.34980336 -0.07384785
000170 44 c5 1f 3e ab eb 99 3d d9 8a a2 3d 83 62 83 3c
       0.15602595 0.07515653 0.07936639 0.016038185
000180 c9 dc a6 bb 34 9b 77 be f9 c9 97 3d 68 9c c5 3d
       -0.0050922376 -0.24180299 0.0741157 0.09648973
000190 44 b0 3f bb 3c f7 53 bc ee d4 ac 3b 59 f9 e0 3d
       -0.002924935 -0.012937363 0.0052744066 0.10985059
0001a0 90 f6 13 3d 04 eb 45 3d 0d c8 4c 3e 1b 0f ac bd
       0.036123812 0.04831983 0.19998188 -0.08401319
0001b0 eb 88 11 3c 8c f6 44 be 92 23 7d 3d 0e 87 1a 3c
       0.008882741 -0.19234675 0.0618015 0.009431614
0001c0 e0 50 2a 3c 60 e9 12 3d ee eb 43 be ae 11 16 be
       0.010395259 0.035867095 -0.19132969 -0.14655182
0001d0 4f b7 81 bd 24 62 9f ba 71 67 aa 3d 23 48 2c 3e
       -0.063337915 -0.0012159985 0.08320511 0.16824393
0001e0 b3 df 7e be ed 84 45 bb 06 5c 38 be d6 5c 22 be
       -0.24890022 -0.0030139044 -0.18003854 -0.15855727
0001f0 e0 e2 25 3d fd bd b3 3d bc 1a 74 bc 8c 1c a6 bd
       0.040499568 0.08776472 -0.014898952 -0.08110914
000200 71 45 9a 3d a4 42 8b bd 4d 6e 58 3c 30 19 14 bb
       0.07532776 -0.0679982 0.0132098915 -0.002259802
000210 27 1a 04 3e 62 0f 91 bd 52 30 12 be 26 09 02 be
       0.12900601 -0.07083012 -0.14276245 -0.12698802
000220 1a 2a 28 bd 99 47 10 be 4f ea 53 3c 64 07 c1 bd
       -0.041055776 -0.14089812 0.0129342815 -0.09425238
000230 26 89 68 ba ad 59 be 3d 88 ee d8 bc af e0 d2 bd
       -0.00088705344 0.09294448 -0.026480928 -0.10296761
000240 07 0d 07 be 01 2d 1e be 05 83 32 3d cb 04 c8 bd
       -0.13188563 -0.15446855 0.04358198 -0.09766539
000250 a1 03 7b 3d 2d c8 b3 3d 93 47 40 bc b9 9e c4 3d
       0.061282758 0.08778415 -0.011735815 0.096005864
000260 ef 34 a2 3d a5 66 a6 3d 10 6f 87 bd ce 7a 6c 3d
       0.079202525 0.08125047 -0.0661298 0.057734303
000270 72 0f b2 bd 77 9b 66 bd e9 40 22 be 92 45 53 3c
       -0.08694352 -0.056300607 -0.15845074 0.012895005
000280 28 86 01 bc 5d fe c7 bc 50 c4 b9 bc e2 99 9d bd
       -0.0079055205 -0.024413282 -0.022676617 -0.076953664
000290 7a 0e 84 3d 04 df 26 bd fd fd 1d 3e 91 6a 89 bd
       0.06448074 -0.040740028 0.1542892 -0.06709779
0002a0 78 d0 ef 3d 15 07 65 bd 32 ff 20 bd 00 68 dc bd
       0.11709684 -0.055914957 -0.039305873 -0.10762024
0002b0 46 ff 9e bd cb 22 6f 3d ac 63 3b be 53 e3 b2 3d
       -0.07763533 0.05838279 -0.1829974 0.08734765
0002c0 84 f6 ce 3d f6 f6 fa bd 64 62 31 bd 84 9e 52 bd
       0.10105613 -0.12254135 -0.043306723 -0.051420704
0002d0 05 d4 01 3d dd 84 58 be 45 e6 27 be 3b 68 3b be
       0.03169634 -0.21144433 -0.16396435 -0.1830148
0002e0 ac aa c1 bd a6 05 4d 3c c4 9a 29 be dc 86 bb 3c
       -0.09456381 0.012513554 -0.16562945 0.022891454
0002f0 e0 cd 32 3d f6 11 05 3d b4 b2 55 be 2b bf 8e bd
       0.04365337 0.032487832 -0.20868951 -0.06970056
000300 af 8c 90 bc b8 90 a6 3d e2 4c 6a 3c cc dd 56 b8
       -0.017645208 0.08133072 0.014300557 -5.122814e-05
000310 cf 67 09 be 40 d0 ed 3d 40 fa 49 bd 2d 0f 07 3d
       -0.13418506 0.11611986 -0.049310923 0.032973457
000320 fc be 1a 3d cf 6f 9c 3d 5f 06 6a bd 98 1d 9b 3b
       0.037779793 0.07638513 -0.057134982 0.0047337525
000330 d4 87 b0 3c c3 2f aa bb f4 3c 4c bc 09 89 d7 3d
       0.021549143 -0.005193682 -0.012465704 0.10524184
000340 ed 70 fe bc e6 64 27 3d 30 77 01 be b0 46 51 bd
       -0.031059707 0.04086771 -0.12643123 -0.051092803
000350 4c 65 ed 3c 02 a9 65 be e3 05 2b bd 57 b0 14 bd
       0.028978966 -0.22427753 -0.04175366 -0.036300983
000360 13 2e 72 be c5 91 55 bd 51 a8 48 3d 86 55 dd 3c
       -0.23650388 -0.05214097 0.048988644 0.02701832
000370 cb 69 ef 3c 76 5f 7e bd 17 e6 90 3e 57 af 54 3c
       0.02922525 -0.062102757 0.28300545 0.012981257
000380 cb 1d 55 3d 4b 8a 15 be 73 cf 80 3d 27 1f 26 bd
       0.052030366 -0.14603536 0.06289568 -0.040557053
000390 16 7d cd 3d 7a 3d 2a 3d 4e 0e 5d 3d 6a 4a bb bd
       0.10033624 0.041562535 0.05396872 -0.09145053
0003a0 80 58 6b bd ff aa 88 bd 50 e3 79 bd 67 04 d2 3d
       -0.057457447 -0.0667324 -0.061007798 0.10254746
0003b0 bd 58 72 bc f8 1f 0e be 5a d3 6f bc 6a 34 66 3e
       -0.014791665 -0.13879383 -0.0146377925 0.22480932
0003c0 fa ce d7 bc 98 bd cb 3d d9 c3 d0 3d 7d 9c 29 3c
       -0.026343811 0.099482715 0.10193605 0.010352251
0003d0 84 fa 17 bd 67 b8 e6 3d da da b2 3c ea 69 a9 bd
       -0.037104145 0.11265641 0.021832872 -0.08272155
0003e0 66 57 14 3d fb 1f 1e be 54 c4 d6 bd 73 c1 d2 bd
       0.036216162 -0.15441887 -0.10486665 -0.10290804
0003f0 5b 39 16 be 59 6b 6f 3c bf ba 11 3e e9 55 04 3d
       -0.14670317 0.014612996 0.14231394 0.032308493

network_body._body_endoder.seq_layers.2.bias f4 [128]
000000 74 11 2b 3d 25 cf 7c 3d d0 24 38 3d 6b b8 42 3d
       0.04176469 0.061720986 0.044956982 0.047539156
000010 13 96 82 3c 2c e3 1c 3b 3a 7f 83 bc b5 31 05 3d
       0.015940702 0.0023939116 -0.016051877 0.032518107
000020 91 ee b9 3c 84 f4 b7 bb 70 35 18 3d a7 f4 12 bc
       0.022696765 -0.0056138653 0.037160337 -0.0089694625
000030 1a 30 6a 3d cf 93 a1 3b 26 75 c9 3d 09 ff 20 3d
       0.05717478 0.0049309502 0.098367974 0.03930572
000040 af e3 c5 3c e1 6e aa 3d bf c9 cc 3d aa 8d 24 3d
       0.02415642 0.0832193 0.099994175 0.040174164
000050 51 29 0f 3d 3b 25 39 3d e7 dd 80 3d 6d 4f 63 3b
       0.03495151 0.04520152 0.062923245 0.0034684793
000060 76 51 5f 3d ac 82 e3 3c 6e 8d f8 3c 25 a5 ee 3c
       0.054521047 0.02777227 0.030340876 0.029131481
000070 f2 91 07 3b 2d 3b 76 bd 1d e9 2d bd cf 4b cd bb
       0.0020686355 -0.06011503 -0.042458642 -0.0062651406
000080 6a a2 c2 3d ce 1f 27 3b 04 f0 87 39 04 c7 99 3b
       0.09503634 0.0025501135 0.00025928032 0.004692914
000090 9e ca db 3c b2 65 d0 3c e8 b3 1c bd bc 34 17 3d
       0.026830014 0.025439117 -0.03825751 0.036915526
0000a0 ad 2e 1f bd 27 b9 1e 3d cc 21 5e bc 5c 58 f1 b9
       -0.038862873 0.038750794 -0.0135578625 -0.00046032935
0000b0 6e 00 82 3d 08 a1 91 3d 85 84 e5 3c 43 a4 a7 3c
       0.06347738 0.071107924 0.028017292 0.020464068
0000c0 e9 fc 16 3d 37 5d 01 3d e5 cc 9d 3d d5 7a a2 3c
       0.036862288 0.031583037 0.07705096 0.019833962
0000d0 ab 62 2e 3d f0 7d f8 3c 93 bc 6b 3d 8c 02 33 3d
       0.042574566 0.03033349 0.057552885 0.0437036
0000e0 3d ac 36 bd 6f c1 e7 3c 71 19 6a 3c 94 f7 15 bc
       -0.044597853 0.028290479 0.014288292 -0.0091532655
0000f0 cf 4d 26 bb 73 f4 ba 3c 03 06 fd 3c d9 fe 5b bb
       -0.0025375967 0.02282164 0.030886656 -0.003356865
000100 53 2f 1c 3d a4 61 18 3d ea 48 34 bd c9 d4 87 bd
       0.03813107 0.037202492 -0.04401485 -0.066323824
000110 c5 09 5e 3c a5 8a 36 3d 7f c2 e1 bc 3a 8c 70 3d
       0.013552134 0.044565815 -0.027558563 0.05872748
000120 fd 99 9a 3c 03 7c aa 3d d2 6a bd 3d 66 37 88 bd
       0.018872255 0.083244346 0.0924889 -0.066511914
000130 df a2 13 3d 15 53 24 3d 3d ba 06 bd a4 36 43 3d
       0.036043998 0.040118296 -0.032892454 0.04765953
000140 bb d2 12 3c 2f 7a 9c 3d 21 14 09 3d db cb e3 3c
       0.008961375 0.07640492 0.033466462 0.027807167
000150 b1 a6 dc 3c 9f 4c f5 3c 69 f1 82 3c bb a3 73 bc
       0.026934953 0.029943762 0.015984254 -0.014870579
000160 57 26 11 3d 29 fe 8d 3d fa 0f 80 bc f8 bb 36 3d
       0.035436954 0.06933243 -0.015632618 0.044612855
000170 b1 52 30 3c 5e c5 76 3d ff 3c e3 bb a7 d2 5d bd
       0.010761903 0.060246818 -0.0069347615 -0.05415597
000180 eb 65 72 3d 97 ab 46 3c 5b 3d ec bc 35 11 7d 3d
       0.059179228 0.012125871 -0.02883785 0.061783988
000190 d4 8a 3d 3d 81 b3 f2 3c c9 2d 5c 3c 92 85 03 3d
       0.046274975 0.02962661 0.01343865 0.032109804
0001a0 41 a8 e5 3c 47 ad 04 3d a3 a0 97 bc ed 60 c6 3c
       0.028034331 0.032391813 -0.018509215 0.02421614
0001b0 8b 3c 29 bc de 69 d9 3c df f1 6b 3d b4 22 c8 3c
       -0.010329376 0.02653974 0.057603713 0.02443061
0001c0 54 50 c6 bb 5b 07 0e 3c 6c 79 54 3d a7 79 c1 ba
       -0.0060520563 0.008668746 0.05187361 -0.0014760987
0001d0 05 b8 d8 3d d2 46 bb bc d0 7b 82 bc db b9 45 3d
       0.10581974 -0.022860918 -0.015928179 0.04827295
0001e0 bc f3 67 3d 68 de 0f 3d f1 f6 90 bb e9 25 ca 3d
       0.056628928 0.035124213 -0.004423969 0.09870512
0001f0 04 75 3b 3d 49 67 92 3d 6b 1f 99 3c 26 16 57 3c
       0.04576589 0.07148606 0.018691739 0.013127839

action_model._continuous_distribution.log_sigma f4 [1, 2]
000000 74 26 1c be 3c 8c 8b be
       -0.15249044 -0.27255428

action_model._continuous_distribution.mu.weight f4 [2, 128]
000000 63 17 20 bc c2 df 05 3d 82 6a b6 bd ea fd 10 3d
       -0.009771201 0.032684095 -0.089070335 0.0353984
000010 79 5f 4e 3d 92 b3 9c 3c c7 55 cd bb 3b 96 10 3c
       0.05038402 0.019128595 -0.006266329 0.00882488
000020 16 19 14 3c de b6 90 bc a6 d5 78 3d d0 e9 54 3d
       0.009039184 -0.017665323 0.060750626 0.051980793
000030 38 97 f5 bc 78 dc 7d 3d ec 7f 42 3c d0 2d 51 bd
       -0.029979333 0.061977834 0.011871319 -0.05106908
000040 b5 46 b3 bb cb 57 c4 bd fa d2 98 bd 5d af ad 3c
       -0.0054710754 -0.09587058 -0.074621156 0.021201784
000050 88 8f b2 3d 28 de c2 3d a5 2a f4 3d ab ee 82 3c
       0.08718783 0.09515029 0.11922196 0.015982946
000060 d2 37 50 bd ee f1 16 bd 3f c1 1a bd 24 e7 74 bd
       -0.050834484 -0.036851816 -0.03778195 -0.059790745
000070 0b 9c 89 3d 64 61 f0 3a 7a 41 f2 bc 31 32 70 bd
       0.06719216 0.0018339572 -0.029572237 -0.058641616
000080 66 f0 8c bd f2 18 e0 bc 55 89 8b 3c 96 97 93 3d
       -0.0688179 -0.027355645 0.017033258 0.07206647
000090 a3 61 4b 3d 7c ac 23 3c 79 5b 9c bc e6 ac 48 bc
       0.04965366 0.009989854 -0.019086586 -0.012248253
0000a0 21 f8 61 3c 1d 16 4b bd 17 c9 3d 3c 3c 95 bc bc
       0.013792069 -0.049581636 0.011583588 -0.02302038
0000b0 93 83 a1 bd 75 9f 18 3d 62 5c 5e bd 16 b5 56 3d
       -0.07886424 0.037261445 -0.054287322 0.05241879
0000c0 81 27 8f 3c 52 c0 0f bc b4 b5 10 bd 45 9e 30 3d
       0.017474892 -0.00877388 -0.035329536 0.043119688
0000d0 0e 7f 9b bd 33 79 a8 bd 83 17 c3 3d 50 6c cd 3d
       -0.07592593 -0.08226242 0.09525969 0.100304246
0000e0 05 10 2b 3c 4e 4b 7c 3c 7c 2e 88 3d cd 80 86 bd
       0.010440831 0.015398813 0.06649491 -0.065675355
0000f0 ea 4e 8d bd a8 ab 05 bd 5d 5a c7 bd 34 03 5f bd
       -0.06899817 -0.032634407 -0.09734032 -0.054446414
000100 a7 4e 81 3d c7 ef cd bd 4f d1 7f 3c 55 7e 83 bc
       0.0631383 -0.100554995 0.015613868 -0.01605145
000110 73 65 88 bc 88 bf 96 3d 3a dd 86 3c 9d dc a2 3d
       -0.016649937 0.073607504 0.01646291 0.07952235
000120 9f a3 fa 3c 09 8f a9 3c 36 07 37 3d 65 3a 95 bb
       0.030595599 0.020698087 0.04468461 -0.0045540803
000130 20 96 60 3d 47 c1 a7 bd 0a 40 98 3b 05 d2 3d 3d
       0.05483067 -0.081911616 0.004646306 0.04634287
000140 6e b9 9b 3d 3d cf ec bd f8 7d 1e 3d 88 41 32 3d
       0.07603727 -0.11562965 0.038694352 0.043519527
000150 3a 0b 2e 3c 37 8c 37 3d d2 61 bf 3d 66 67 8c 3c
       0.010622794 0.044811454 0.093448296 0.017139148
000160 db 6c 0c bd 94 9d 5b bd 22 b4 3f bd fb 5d 2f 3d
       -0.0342835 -0.053617075 -0.046802647 0.042814236
000170 c9 04 51 bd 23 24 89 3d 0e 22 e6 3c 73 b5 33 3c
       -0.051029954 0.06696346 0.02809241 0.010968554
000180 cc 5d 0f 3d 2b 00 e7 bc 1c 2f e9 3c a1 27 b8 3d
       0.03500156 -0.028198322 0.028464846 0.089919336
000190 3f 30 2c bd 1a e6 39 bd 30 96 be 3d e5 4f b7 bc
       -0.0420382 -0.045385458 0.0930599 -0.022376964
0001a0 b5 24 a1 bd e4 d8 a9 3d 28 2f 9e 3c 09 a3 b3 3c
       -0.078683294 0.08293322 0.019309595 0.021928327
0001b0 fd 67 b0 3c ff b0 03 bd b5 f1 1b bd 77 5b 4c bd
       0.02153396 -0.03215122 -0.038072307 -0.049891915
0001c0 54 13 15 bd cd f7 40 3d 8e 28 41 bd 0f 48 f4 bc
       -0.036395386 0.04711132 -0.047157817 -0.029819516
0001d0 d5 cc 80 3a e2 ab 43 3c 8e 40 31 3c d3 e8 9f bd
       0.000982667 0.0119428355 0.010818614 -0.078080796
0001e0 bc 75 92 3d 28 8d b1 bc e5 54 6b bd db 06 e3 bd
       0.07151362 -0.021673754 -0.05745401 -0.11085292
0001f0 4f fd a2 bd cf fa bf bc 23 3a b2 bd 5f 3b 8c 3d
       -0.07958471 -0.023435025 -0.08702495 0.06847262
000200 4b 94 92 3d 50 55 24 3d 50 56 35 3b 16 d6 99 3d
       0.07157191 0.040120423 0.0027669854 0.07511537
000210 85 eb 4c 3d 86 98 28 bc 3b 34 49 bc 8e 47 9f bd
       0.050029296 -0.010290271 -0.012280519 -0.0777732
000220 71 bc 64 bd f3 5f 10 3d a0 4d 1e bd 2d b1 40 bd
       -0.055843774 0.035247754 -0.038648248 -0.047043968
000230 44 c2 c5 bd 98 f9 10 bd 8e 4a c1 3d 9e 2a 1e bd
       -0.09656194 -0.03539428 0.09438048 -0.03861486
000240 a7 bb 9c 3d ae d9 1b bd 29 f7 fc bd 41 d6 a4 bd
       0.07652979 -0.038049392 -0.123518296 -0.08048678
000250 6c 0d a2 bd 8d 7d 8c 3d fe 54 43 3d 9a 17 0a 3d
       -0.07912716 0.068598844 0.047688477 0.033713914
000260 5d eb 84 3d 55 88 3f bd 09 d1 7f bd 3d fb 05 3d
       0.064902045 -0.046760876 -0.06245521 0.032710303
000270 80 16 4e 3c 79 18 81 bc fa ef 26 3d ff 4d b8 bb
       0.012578607 -0.01575874 0.040756203 -0.0056245322
000280 4c 85 4c 3d 8d 32 02 b9 2a 2a f5 3c 36 0e 86 3c
       0.04993181 -0.00012416598 0.029927332 0.016364198
000290 57 c1 c9 3c 9f 27 91 bd b0 0e 1a bc cf fe 87 bd
       0.024628324 -0.07087635 -0.009402916 -0.06640398
0002a0 e7 d8 85 3c cd 25 2e bd eb aa 41 bb 4b 3d 43 3d
       0.016338779 -0.04251652 -0.0029551338 0.047665875
0002b0 77 9b 09 bd b6 62 b8 bd 4f 2a c8 ba 08 a2 53 bd
       -0.03359553 -0.090032026 -0.0015271398 -0.051668197
0002c0 00 ad 67 3d cd b6 91 3c c0 58 ee 3d 22 fc 1e 3d
       0.05656147 0.017787362 0.116380215 0.03881467
0002d0 81 a2 59 3d a1 71 19 bc 35 5c 48 3d c0 3c 3f 3d
       0.05313349 -0.00936547 0.04891606 0.046688795
0002e0 e8 b0 11 bc 6c 73 93 bd 37 c4 ad bc fa b4 ac bc
       -0.008892275 -0.07199749 -0.021211727 -0.02108239
0002f0 6a 88 dd bc f4 ba 7f 3d 91 c9 a2 bc b4 a0 14 bd
       -0.027042586 0.06243415 -0.019871505 -0.03628607
000300 84 83 d0 bc 2f 3d 48 3c 50 ca d0 3b 8f eb 14 3c
       -0.025453337 0.012221619 0.006371774 0.009089365
000310 36 e3 6a bd df f4 ff bc 31 89 6d 3a dc c3 9a bb
       -0.05734559 -0.031244693 0.00090612756 -0.0047230553
000320 3e 53 58 bd 3c 12 c7 3d 75 65 c8 3d 92 6a 90 3b
       -0.05281376 0.09720275 0.097849764 0.0044072354
000330 34 76 52 3d 64 56 61 bd b0 6f 89 3c d2 69 8d bd
       0.05138226 -0.05501403 0.01677689 -0.06904949
000340 fd 5e 30 3d 38 cd 13 b9 ec 33 72 bd 39 cf 88 3d
       0.043059338 -0.00014095462 -0.059131548 0.066801496
000350 2b 67 92 bd cc 90 12 3d b8 1c a1 bb f8 a2 d4 3c
       -0.07148584 0.03578262 -0.0049167536 0.025956616
000360 9e cc 58 bd 5e d2 8c bd 4a db 59 ba 27 0c c0 bd
       -0.052929513 -0.06876062 -0.00083105697 -0.09377318
000370 d5 fa da bc 08 37 a2 3d d8 63 10 bd c2 6b fa 3a
       -0.026730934 0.07920653 -0.03525147 0.0019105601
000380 f1 7c a1 bd 2a c8 12 bd b9 76 a6 bb b8 01 60 3d
       -0.07885159 -0.035835423 -0.005080071 0.05468914
000390 02 c6 49 3d f8 ae 2c bd 64 7b 98 3c 00 ef 1d bd
       0.0492611 -0.04215905 0.018613525 -0.038558006
0003a0 87 12 72 3c 3d c9 b0 3c 5e fc 4b bb 5e bc 9a 3d
       0.014774925 0.021580333 -0.0031125764 0.075554594
0003b0 15 b1 16 bd 78 72 a2 bd 12 3f 34 bd 7c 33 3f 3d
       -0.036789972 -0.079319894 -0.04400546 0.04667996
0003c0 3e 57 a8 3a 3c 77 0f 3d d6 e4 bf bb 33 94 96 bd
       0.0012843383 0.03502582 -0.005856137 -0.073524855
0003d0 03 92 b5 3d 83 1b 32 bd 66 fa a9 bc 77 58 bd bc
       0.0886574 -0.04348327 -0.020749282 -0.023113472
0003e0 9e 4b 7e 3d 99 3e 8f 3d fc a8 ab 3c c7 77 81 3d
       0.062083833 0.069943614 0.020954601 0.06321674
0003f0 ad 4e ed bb 76 93 bc 3d 81 33 51 bc a3 08 2c 3d
       -0.007242045 0.092078134 -0.012768627 0.042000424

action_model._continuous_distribution.mu.bias f4 [2]
000000 5d 17 4d bc 9e f6 89 3c
       -0.012517777 0.016841229
