Assets/results/RL/RollerBall/checkpoint.pt (torch, 447083 bytes, 36 tensors)

network_body._body_endoder.seq_layers.0.weight f4 [128, 8]
0	0xbe3c729a	-0.18403092
1	0xbd3ab7a8	-0.045585304
2	0xbeea4b11	-0.45760396
3	0xbe7d4709	-0.24734129
4	0xbea026bf	-0.3127956
5	0x3e757601	0.23970796
6	0xbd2bbac4	-0.04192616
7	0x3d408acd	0.04700737
8	0x3e7108dc	0.23538536
9	0xbe5d1eee	-0.2159383
10	0xbe23c4ab	-0.15992992
11	0xbe82a757	-0.25518295
12	0xbe8ca7a0	-0.27471638
13	0x3be5641d	0.00700046
14	0xbeaf0a50	-0.34187555
15	0x3e812b4c	0.25228345
16	0xbee24f3c	-0.44201076
17	0x3e7ef962	0.2489982
18	0xbe5e5402	-0.21711734
19	0xbcbec66e	-0.023287978
20	0x3df46a44	0.11934331
21	0x3e9bbb15	0.3041617
22	0x3f1d7ed0	0.61521626
23	0xbec95d9f	-0.3932924
24	0xbe10b41e	-0.14131209
25	0x3e2a4eeb	0.16631667
26	0x3da1bd5a	0.07897444
27	0x3d451f10	0.048125327
28	0x3dc74df5	0.09731666
29	0xbd8c84c9	-0.06861264
30	0xbdb09724	-0.08622578
31	0xbefa5c20	-0.4889841
32	0xbeaf19ce	-0.34199375
33	0x3d6cd559	0.05782065
34	0x3dec9e58	0.11553639
35	0x3f564eff	0.8371429
36	0xbf1f1c7e	-0.6215285
37	0xbe6a15aa	-0.22859827
38	0xbf1566da	-0.58360064
39	0xbe338433	-0.17530899
40	0x3dee8e33	0.11648216
41	0xbf155d5f	-0.583456
42	0x3e5a09a7	0.21292745
43	0x3ecd756f	0.40128657
44	0xbeb5c9ff	-0.35505673
45	0xbe95e4ce	-0.29276127
46	0x3c9a2e85	0.01882101
47	0xbe9aa50d	-0.3020405
48	0x3eb87bbb	0.360319
49	0x3d5d5a4f	0.054041203
50	0xbd6c9506	-0.057759307
51	0x3eba28f5	0.36359373
52	0x3eae2c12	0.34017998
53	0x3e7ac8c5	0.2449065
54	0xbf018d58	-0.506063
55	0xbe75f050	-0.24017453
56	0x3ec13dd7	0.37742493
57	0x3f725b52	0.94670594
58	0x3eb44829	0.35211304
59	0xbf14140f	-0.57843107
60	0xbe98ecfe	-0.2986831
61	0x3e476a23	0.19474082
62	0x3e6974e5	0.22798498
63	0x3e47cd8a	0.19512
64	0x3dbb3112	0.09140219
65	0x3f0b86f8	0.5450282
66	0xbe17fb88	-0.14842045
67	0x3eb127dd	0.34600726
68	0xbed16fe7	-0.40905687
69	0xbeaf109b	-0.34192356
70	0x3ed62b6e	0.4183001
71	0xbdad0ce3	-0.084497236
72	0x3dcb71ad	0.09933791
73	0xbe604037	-0.21899496
74	0xbe97ce51	-0.29649594
75	0x3e74d6f6	0.23910126
76	0xbe5f7c1d	-0.21824689
77	0x3ec2351c	0.37931144
78	0x3e0b29ad	0.13590117
79	0xbe7d1b51	-0.24717452
80	0xbcb444f5	-0.022005538
81	0x3d7b3052	0.06132538
82	0x3eea70b7	0.4578912
83	0xbe32d5e0	-0.174644
84	0x3e61b0ad	0.22040053
85	0x3ec5fb89	0.3866847
86	0x3d99adf6	0.075038835
87	0x3ebb1e98	0.3654678
88	0xbdd0a0ae	-0.10186897
89	0x3eb73265	0.35780635
90	0xbf6103d3	-0.8789646
91	0x39d8f1a4	0.00041378767
92	0xbe94bdfa	-0.2905119
93	0xbf145ed1	-0.5795718
94	0xbe701e36	-0.23449025
95	0x3e486971	0.19571473
96	0x3e89079c	0.26763618
97	0x3f09c208	0.53811693
98	0x3e876db7	0.26450893
99	0x3d627c05	0.055294055
100	0x3e99fbeb	0.3007501
101	0x3f06b02d	0.5261257
102	0x3ec843f4	0.39114344
103	0xbef89cc1	-0.48557094
104	0x3b3c4a6b	0.002873088
105	0xbf2e3b80	-0.6805954
106	0xbf13bbb0	-0.57708263
107	0x3df45123	0.11929538
108	0xbde5d3a6	-0.11222009
109	0xbe378206	-0.17920694
110	0x3cc8b422	0.024499957
111	0x3d5ba032	0.05361957
112	0x3e5db708	0.21651852
113	0x3d501c7c	0.050808415
114	0xbf464405	-0.7744754
115	0xbe0d84b1	-0.13820149
116	0x3f0a6b13	0.5406963
117	0xbeb175b4	-0.34660113
118	0x3e68b56e	0.2272546
119	0x3d28613b	0.04110835
120	0xbf0385b8	-0.51375914
121	0xbee2edfd	-0.44322196
122	0xbeaee6a1	-0.3416033
123	0x3f0c378c	0.5477226
124	0x3de48aeb	0.11159309
125	0x3d4e27dc	0.05033098
126	0x3decd9ba	0.115649655
127	0xbe72906a	-0.23687902
128	0xbe7a070c	-0.2441675
129	0x3e601582	0.21883205
130	0xbe8f2047	-0.27954313
131	0xbe009157	-0.12555443
132	0x3e993cd7	0.2992923
133	0xbe51590c	-0.20444125
134	0xbe3dd485	-0.18538101
135	0xbd138d5d	-0.036023486
136	0x3d952133	0.07281723
137	0x3e624995	0.22098382
138	0x3d63089c	0.055428132
139	0xbecd7460	-0.4012785
140	0x3e872be3	0.2640067
141	0xbe267377	-0.16254984
142	0x3e33fcf8	0.17576969
143	0xbd2b39c9	-0.041803155
144	0xbe9748d6	-0.29547757
145	0x3eab4ccf	0.33457038
146	0x3eedde6b	0.46458754
147	0x3e091600	0.13387299
148	0xbec0d8e4	-0.37665474
149	0xbd81f422	-0.06345393
150	0x3ed8e2fe	0.4236068
151	0x3dfb764e	0.12278424
152	0x3e1a43cb	0.15064923
153	0xbe9b2794	-0.30303633
154	0x3d7259bf	0.05916762
155	0xbebdb98d	-0.37055627
156	0xbe4c7309	-0.19965757
157	0xbe9e1481	-0.30875018
158	0x3eb33d41	0.3500767
159	0xbd9269d2	-0.0714909
160	0x3e19bbb2	0.15013006
161	0x3e8faef9	0.2806318
162	0x3e8e057c	0.2773856
163	0xbe5570bb	-0.20843785
164	0xbf7817ca	-0.969113
165	0x3d155d8d	0.03646617
166	0x3eb9a0a3	0.3625537
167	0xbe3218cc	-0.17392272
168	0xbe9151b6	-0.28382653
169	0x3d2a1a7d	0.041529167
170	0x3ecef287	0.4041941
171	0x3bb139da	0.005408508
172	0xbcb79d8a	-0.022413988
173	0x3ad37b31	0.0016134736
174	0xbeffa99f	-0.49934098
175	0x3dafc38a	0.08582218
176	0x3bd6799e	0.0065452596
177	0x3f8002df	1.0000876
178	0xbe1539df	-0.14572857
179	0x3e26272a	0.16225877
180	0x3eb7a8b8	0.3587091
181	0xbef6e55d	-0.48221865
182	0x3e5c5910	0.2151835
183	0xbe128e23	-0.14312033
184	0xbe6e7060	-0.23285055
185	0xbee0c235	-0.43898168
186	0xbd1b7188	-0.03795007
187	0xbd196535	-0.037450034
188	0xbe7a3ac3	-0.24436478
189	0xbf250552	-0.64461243
190	0xbedc2b9a	-0.43002015
191	0x3f2a0dd5	0.66427356
192	0x3ef66915	0.48127046
193	0x3f11b92f	0.5692319
194	0xbea45e56	-0.32103223
195	0xbf444c70	-0.76679134
196	0x3e912d11	0.28354695
197	0x3ed4e222	0.41578776
198	0x3e3b413b	0.18286602
199	0xbea3a456	-0.31961316
200	0x3f468eee	0.77561843
201	0xbe8ec9c8	-0.27888322
202	0x3dd05797	0.101729564
203	0xbf146f8b	-0.579827
204	0xbf16b9ca	-0.5887724
205	0xbd2e22bd	-0.042513598
206	0xbe894587	-0.26810858
207	0x3e6c1484	0.23054701
208	0x3e60e989	0.21964087
209	0xbe882655	-0.26591745
210	0xbf653ff4	-0.8955071
211	0xbeb9f017	-0.36315987
212	0xbe0be863	-0.13662867
213	0xbe055f48	-0.13024628
214	0xbedb2000	-0.42797852
215	0x3e52d74d	0.20589943
216	0x3e550a30	0.20804667
217	0x3efc2cf7	0.49253055
218	0xbe47a564	-0.19496685
219	0x3e0e91fe	0.13922879
220	0x3dc0367c	0.09385392
221	0xbecd35c2	-0.40080076
222	0x3ca7f13e	0.020500775
223	0x3f2aeee3	0.6677076
224	0xbee3cf81	-0.4449425
225	0xbdafa518	-0.08576411
226	0x3e29ef00	0.16595078
227	0x3e2815ee	0.16414616
228	0x3eb3832f	0.35061023
229	0xbe81b031	-0.25329736
230	0xbf123dba	-0.5712544
231	0xbe1ca0ec	-0.15295762
232	0xbf162a02	-0.5865785
233	0xbdddd4a8	-0.108315766
234	0x3f1ff10e	0.62477195
235	0xbe5065b1	-0.20351292
236	0xbc6d0f52	-0.014468985
237	0x3d2771f2	0.04088015
238	0xbf06d99b	-0.5267579
239	0xbeda3695	-0.42619768
240	0x3e616d2f	0.22014306
241	0xbdd56c5e	-0.1042106
242	0x3f5297d0	0.822629
243	0xbdc1e221	-0.09466959
244	0xbe0b4c02	-0.13603213
245	0x3f1f81ac	0.6230724
246	0xbf3b8194	-0.73244596
247	0xbf656488	-0.89606524
248	0x3d52cfbf	0.051467653
249	0x3e2a06cd	0.16604157
250	0x3eae8bc4	0.34091008
251	0xbf3059c9	-0.68887
252	0xbe854a5f	-0.26033303
253	0x3d94ef17	0.07272165
254	0x3e91539a	0.28384095
255	0x3f2ab409	0.6668096

network_body._body_endoder.seq_layers.0.bias f4 [128]
0	0x3ba87a0a	0.0051415013
1	0x3b9a1641	0.00470236
2	0x3a005c5a	0.0004896574
3	0x3bd5003e	0.006500273
4	0xbb07e159	-0.0020733683
5	0xb927612b	-0.00015962559
6	0x3a8607b1	0.0010225681
7	0xbb675823	-0.0035300336
8	0x3c197409	0.009366044
9	0x3c0ddcdb	0.008658613
10	0xbca721e1	-0.020401897
11	0xbc30887e	-0.01077473
12	0xbb8e12b4	-0.0043357257
13	0x3a94afbf	0.001134388
14	0x3b420a91	0.002960835
15	0xbc0d1446	-0.008610791
16	0xbb6522f4	-0.003496346
17	0x3b62f120	0.0034628585
18	0x3b0d7c07	0.0021588819
19	0xbb11cd1b	-0.0022247497
20	0xbc1eba63	-0.009687993
21	0xba596884	-0.0008293467
22	0xbc22a4fe	-0.0099270325
23	0x3a152646	0.0005689602
24	0x3b6151bb	0.003438099
25	0xbbf37187	-0.007429305
26	0x3aff1f10	0.0019464213
27	0xbb2c952d	-0.0026334033
28	0x3bbd2070	0.005771689
29	0x3c458445	0.012055461
30	0x3b741e24	0.003724941
31	0xbafc0e7e	-0.0019230393
32	0x3bc59d3e	0.0060307076
33	0xbb84bd5e	-0.0040508946
34	0x39794a22	0.00023774107
35	0xbc6a58fb	-0.014303441
36	0x3c24703d	0.010036525
37	0xb957da82	-0.00020585398
38	0x3b1e34db	0.002414039
39	0x3bd5a611	0.006520041
40	0x3a53e8a1	0.00080836756
41	0x3b027f4d	0.0019912303
42	0xbb71d155	-0.0036898453
43	0xba3fadd7	-0.0007311976
44	0x3b52358a	0.0032075369
45	0xbb5314d8	-0.0032208469
46	0x3b6374d6	0.003470709
47	0x3b85a118	0.0040780418
48	0x3b3ca067	0.002878213
49	0x3b21d1f8	0.0024691802
50	0x3b2b6c35	0.0026157026
51	0x3aaac5e5	0.0013028948
52	0x3be8ad45	0.0071007335
53	0x3bd48012	0.0064849937
54	0x3a5b933f	0.00083761284
55	0xbb61e47e	-0.0034468467
56	0xbc628904	-0.013826612
57	0x3b321afa	0.0027176724
58	0xbb366aa9	-0.002783457
59	0xbba27656	-0.0049579544
60	0xbc0761bd	-0.008263049
61	0x3bc0c8da	0.0058833184
62	0xb8ebdb37	-0.00011246505
63	0x3b756208	0.0037442464
64	0xbb152840	-0.0022759587
65	0xbb771780	-0.0037703216
66	0xba0b7ba8	-0.00053208554
67	0xbba737eb	-0.0051031015
68	0xbc8b6669	-0.017016606
69	0xbbbac4db	-0.0056997365
70	0x3c0e7328	0.008694448
71	0xbc328d0f	-0.010897889
72	0xbc008754	-0.007844765
73	0x3accece0	0.0015634559
74	0xbbe90eb1	-0.007112347
75	0xbb702696	-0.0036644093
76	0x3b3ee5da	0.0029128701
77	0xbb35814e	-0.002769548
78	0x3c3981dc	0.011322465
79	0x3b9d7fc2	0.0048064897
80	0xbbcdfada	-0.0062860074
81	0x3c13c3e1	0.009018869
82	0x3b40157d	0.0029309683
83	0xbc9c3cd0	-0.019071966
84	0xbc4c4cbb	-0.012469466
85	0xbb05600e	-0.0020351443
86	0xba881531	-0.0010382292
87	0x3a8c23a8	0.0010691779
88	0xbc85ee13	-0.016348874
89	0x3b89da84	0.0042069573
90	0xbae6bbc9	-0.0017603572
91	0x3a58ea2b	0.000827464
92	0x3bb45c80	0.005504191
93	0x3aaf285c	0.0013363468
94	0x3b5168c9	0.0031953326
95	0x3b1eb358	0.0024215784
96	0xba9c5754	-0.0011927881
97	0xbac99737	-0.0015380149
98	0xbc041f9a	-0.008064175
99	0x3ade69b7	0.0016968761
100	0xbc074e82	-0.008258464
101	0xbb4b16dd	-0.003098897
102	0x3c0b8fac	0.008518141
103	0x3ba4df1a	0.0050314786
104	0xbc2d6c70	-0.010584936
105	0xbb299aa6	-0.0025879531
106	0x3b3627b6	0.0027794666
107	0xbb2e58d5	-0.002660324
108	0xbb894ccd	-0.0041900636
109	0x3bceeed2	0.0063150907
110	0xbc33235e	-0.010933725
111	0x3c74ef59	0.014949643
112	0x3c6c325c	0.0144163035
113	0x39f2cf3f	0.00046312247
114	0x3adbe8ca	0.001677775
115	0xbc595fbd	-0.013267455
116	0x3b11cfee	0.002224918
117	0xb903f5c6	-0.00012584691
118	0xbb582e8d	-0.003298673
119	0xbbce0be7	-0.00628804
120	0x3a915f2f	0.0011090989
121	0x3b851f6a	0.0040625827
122	0xbc0a760f	-0.008450999
123	0xbc8c1beb	-0.017103156
124	0xba1ecb4d	-0.0006057516
125	0x3c5b9c67	0.013403988
126	0x3a8223e4	0.0009928909
127	0xbad082a7	-0.0015908078

network_body._body_endoder.seq_layers.2.weight f4 [128, 128]
0	0xba9c318a	-0.0011916619
1	0xbca37d86	-0.019957315
2	0xbe2ea50d	-0.1705515
3	0xbda2992a	-0.0793937
4	0x3d649615	0.055807192
5	0xbd44469d	-0.047918905
6	0xbcc9a903	-0.024616724
7	0xbcd79c06	-0.026319515
8	0xbd8f3b8a	-0.06993778
9	0x3c26d9ac	0.010183733
10	0x3b8f76b7	0.0043781656
11	0xbe3844e6	-0.17995033
12	0xbcc12210	-0.023575813
13	0xbd4bb41d	-0.049732316
14	0x3d8cb95a	0.068712905
15	0x3dfa3183	0.12216475
16	0xbdbcf6c4	-0.09226754
17	0x3dff5ed8	0.12469262
18	0x3ba70e3c	0.0050981324
19	0x3c21855e	0.009858457
20	0xbddca54e	-0.10773717
21	0xbe5c69e9	-0.21524777
22	0x3c4df395	0.0125702815
23	0x3cd5ca81	0.026097538
24	0x3d9c15a1	0.07621313
25	0xbcee326a	-0.029076774
26	0xbbff7a50	-0.007796563
27	0x3dfb6f41	0.122770794
28	0x3d4ef2aa	0.05052439
29	0xbe054ae1	-0.13016845
30	0xbd6ae843	-0.05735041
31	0x3bb3cf81	0.005487383
32	0x3d59e49f	0.053196546
33	0xb97f3628	-0.0002433887
34	0x3e03de14	0.12877685
35	0xbe39f0d2	-0.18158272
36	0xbdc4f046	-0.09616141
37	0xbc08b969	-0.0083449865
38	0x3ba3a880	0.004994452
39	0xbcd31d60	-0.025770843
40	0xbd0b5785	-0.034019012
41	0x3d83c6cb	0.06434401
42	0x3a5f533b	0.0008519177
43	0xbcc6ffae	-0.02429184
44	0xbdb9cf1b	-0.09072705
45	0xbc9276ab	-0.01787885
46	0xbd69117e	-0.056901447
47	0x3d3ff9d8	0.04686913
48	0xbce8828e	-0.028382566
49	0xbd0ea308	-0.034823447
50	0xbd96cc27	-0.07363158
51	0xba2a19ab	-0.000648881
52	0x3cd43417	0.025903745
53	0xbc3a37bd	-0.011365828
54	0xbe0ceaee	-0.13761494
55	0x3d27910f	0.040909823
56	0xbce82cab	-0.028341612
57	0x3e68882e	0.22708198
58	0x3e50236a	0.2032601
59	0xbd5179c0	-0.0511415
60	0x3d35ade5	0.044355292
61	0xbd45b6bd	-0.048269976
62	0x3d21bccc	0.03948669
63	0x3e8d5933	0.27607116
64	0xbdbfdb5a	-0.0936801
65	0xbd29aec3	-0.04142643
66	0x3dfd19b0	0.12358415
67	0x3da1e847	0.079056315
68	0xbbc38dc1	-0.005967826
69	0xbd50dd72	-0.050992437
70	0x3ca7bd95	0.020476142
71	0x3bc2f4dd	0.0059496
72	0x3deaab51	0.11458457
73	0x3d3e9943	0.04653288
74	0xbe12d55b	-0.14339201
75	0xbcc805f3	-0.0244169
76	0x3b9c494e	0.004769481
77	0x3dc3eb80	0.095664024
78	0xbd0334b7	-0.032032695
79	0xbd56d1d5	-0.052446205
80	0xbc25a982	-0.010111215
81	0x3ce40dbe	0.027838584
82	0x3ba1696b	0.004925897
83	0x3c81126d	0.015755856
84	0x3c6362cc	0.0138785355
85	0xbe03406c	-0.12817544
86	0x3d8b4a33	0.06801262
87	0xba483d37	-0.0007638516
88	0x3d1553b5	0.036456782
89	0x3a7cf4dd	0.00096495246
90	0xbd43a1b2	-0.047761627
91	0x3c764122	0.015030177
92	0x3e19cd11	0.15019633
93	0x3cc9de1d	0.024642045
94	0x3e090f99	0.13384856
95	0xbdf4d69d	-0.11954997
96	0xbe409fb7	-0.18810926
97	0xbdb60ec9	-0.08889539
98	0x3cc75032	0.024330232
99	0x3d0046f9	0.031317685
100	0x3bd50814	0.006501207
101	0x3d916d9c	0.071009845
102	0xbd6d4695	-0.05792864
103	0x3bc2bdef	0.005943052
104	0xbe3fe65c	-0.18740219
105	0x3c80853a	0.015688527
106	0x3c95b83b	0.018276324
107	0xbdb5a050	-0.08868468
108	0x3e377dd6	0.17919096
109	0xbdc42789	-0.09577853
110	0xbdc6fba2	-0.09715964
111	0x3ced3118	0.028954074
112	0x3cd78a1e	0.026310977
113	0xbdea45aa	-0.114390686
114	0x3d1ecb84	0.038768306
115	0x3e10871a	0.14114037
116	0x3d733b9a	0.059383012
117	0xbd85f41d	-0.065407015
118	0x3d48bef9	0.04901025
119	0x3d8b7003	0.06808474
120	0x3d5b84d9	0.05359349
121	0xbcdfd098	-0.027321145
122	0xbe0e4e23	-0.13896994
123	0x3cc2370e	0.023707893
124	0xbde10ff5	-0.10989372
125	0xbd8665bf	-0.06562375
126	0xbd2be44e	-0.041965775
127	0x3d8e9ce8	0.06963521
128	0xbda1d116	-0.07901208
129	0xbd96667c	-0.07343766
130	0xbe19665e	-0.14980456
131	0x3cedf4e6	0.02904744
132	0x3d8dc2d4	0.06921926
133	0xbd4fb282	-0.050707348
134	0x3dee6a53	0.116413735
135	0xbc295528	-0.010335244
136	0x3daf9653	0.08573594
137	0xbe0a0582	-0.13478664
138	0x3cc0b8d0	0.023525625
139	0xbdb2bbf7	-0.08727258
140	0xbd373a7e	-0.044733517
141	0xbd9a816f	-0.07544219
142	0x3d76a661	0.060217265
143	0xbc986cde	-0.0186066
144	0x3d3203a9	0.04346052
145	0x3d9105bd	0.070811726
146	0x3d01fd77	0.031735864
147	0xbd991ba0	-0.07475972
148	0x3cbccd75	0.023047188
149	0xb91021e4	-0.00013745535
150	0xbc126689	-0.008935579
151	0xbca965e2	-0.020678464
152	0xbd440e0e	-0.047864966
153	0x3d1db158	0.038499206
154	0xbe025af6	-0.12730011
155	0xbdd73243	-0.105076335
156	0x3e41a53e	0.18910691
157	0xbd940672	-0.07227792
158	0xbd5af4c9	-0.0534561
159	0xbdf073d2	-0.11740841
160	0xbdfdd9a2	-0.12395026
161	0xbcd0a699	-0.025470065
162	0x3d12a0da	0.03579793
163	0xbcb03047	-0.021507395
164	0xbbe80895	-0.007081101
165	0xbd01df49	-0.031707082
166	0xbac3144e	-0.0014883371
167	0x3e1a424e	0.15064356
168	0x3d817cc3	0.063226245
169	0x3dcadff4	0.09905997
170	0xbd942735	-0.07234041
171	0x3c8afaac	0.016965233
172	0xbc2b53f5	-0.010457029
173	0x3d51b3a4	0.05119671
174	0xbd3e8014	-0.046508864
175	0xbd970dd8	-0.07375687
176	0x3d226b28	0.039652973
177	0x3ddc5c9b	0.107598506
178	0xbd318dad	-0.043348003
179	0x3d71873d	0.058966864
180	0x3d72e221	0.059297685
181	0xbd4976b5	-0.049185473
182	0x3bdebba0	0.006797269
183	0xbafb51d8	-0.0019174172
184	0xbca7ae6e	-0.020468917
185	0x3c806c95	0.015676776
186	0xbd7497bd	-0.05971502
187	0x3c871ada	0.016492296
188	0x3d88e4d3	0.0668427
189	0x3e5b1b62	0.21397164
190	0xb98aecfb	-0.00026497975
191	0x3cc4b30d	0.02401116
192	0x3d9dfc6d	0.07714162
193	0x3da8d149	0.08243043
194	0xbe155c43	-0.14585976
195	0x3cf9d5e5	0.0304975
196	0xbda70304	-0.08154872
197	0xbd9dd07a	-0.077057794
198	0x3d7dae69	0.06193391
199	0xbdc420f7	-0.095766
200	0xbd488a11	-0.048959795
201	0x3dd96087	0.10614114
202	0xbdc61049	-0.09671075
203	0xbdd08a19	-0.1018259
204	0x3c9717e5	0.018444011
205	0xbd98ce64	-0.07461241
206	0x3df6b9a0	0.12047124
207	0xbc60e7ac	-0.01372711
208	0xbc86304d	-0.016380453
209	0x3db4ead4	0.088338524
210	0xbdbbd8a2	-0.09172179
211	0xbd9d9c6f	-0.07695853
212	0x3d8eeea8	0.06979114
213	0x3c1c257a	0.0095304195
214	0xbe152c60	-0.14567709
215	0xbdd4c4f6	-0.1038913
216	0xbc46269a	-0.012094164
217	0x3e39a14a	0.18127933
218	0xbd11e3c7	-0.035617616
219	0xbbc744a2	-0.0060811797
220	0xbd7aaac5	-0.061198015
221	0x3e2d7296	0.16938242
222	0x3d2585a3	0.04041065
223	0xbd5056d8	-0.05086407
224	0xbe81f98c	-0.25385702
225	0xbdb2a160	-0.08722186
226	0xbcbb8cbd	-0.022894258
227	0xbd85ad6e	-0.0652722
228	0xbce48ac9	-0.02789821
229	0x3d8a9909	0.067674704
230	0xbc0b04d9	-0.0084850425
231	0x3c927d5d	0.017882043
232	0xbd8ce110	-0.06878865
233	0x3d2e808a	0.042603053
234	0xbda27aaf	-0.07933556
235	0xbdceddb4	-0.1010088
236	0xbd849b07	-0.064748816
237	0xbcfa255e	-0.030535396
238	0x3d97f1d6	0.074191734
239	0x3dcff3fc	0.10153958
240	0xbd4782a2	-0.048708566
241	0x3e00f2d0	0.12592626
242	0x3d4f6c67	0.05064049
243	0x3ce6a465	0.028154561
244	0x3da6ef36	0.081510946
245	0xbdfa35fe	-0.122173294
246	0xbc99b105	-0.018761167
247	0x3d63d8f9	0.055626843
248	0x3dfe7dbc	0.12426326
249	0xbc3fcaa8	-0.011706032
250	0x3d93f0a1	0.07223631
251	0xbe55a1e3	-0.20862536
252	0x3c7c9256	0.015415749
253	0x3de77532	0.1130165
254	0x3df080e1	0.11743332
255	0xbe3b1426	-0.18269405

network_body._body_endoder.seq_layers.2.bias f4 [128]
0	0xbbf4b6d9	-0.007468086
1	0xbb41a7dd	-0.0029549517
2	0x3b2c0398	0.002624726
3	0xbb8404a0	-0.0040288717
4	0x3bb6541b	0.0055642254
5	0xbba8ed18	-0.005155217
6	0x3bc7c3e4	0.00609635
7	0xbb1349ae	-0.0022474336
8	0xbc03cd26	-0.008044517
9	0xbb78ff65	-0.0037994024
10	0xbba6ce44	-0.0050905067
11	0xbb93ba3f	-0.0045082862
12	0xbba1ee1e	-0.004941716
13	0x39fe2651	0.00048475203
14	0x3af357bd	0.0018565577
15	0x3b81e9a4	0.0039646197
16	0xbc0741e1	-0.008255453
17	0xba80518d	-0.0009789929
18	0xbbb0f0a8	-0.005399782
19	0x3b01764f	0.0019754355
20	0xbbcd31b9	-0.006262031
21	0x39aee1b8	0.0003335604
22	0xbbd5d490	-0.0065255836
23	0xbb1e4354	-0.0024149017
24	0xbc02f6aa	-0.00799338
25	0xbb559c57	-0.0032594407
26	0xbb50eee7	-0.0031880678
27	0xbbc01a6f	-0.005862526
28	0xbc0b0573	-0.008485186
29	0x3a94304a	0.0011305895
30	0xbbe3839c	-0.0069431793
31	0x3a679a19	0.0008834913
32	0x3be01758	0.0068387203
33	0x3bbe6e3f	0.005811482
34	0xbad1cbb5	-0.0016006144
35	0x3b7b0526	0.003830263
36	0x3b518826	0.003197202
37	0xbb8bc752	-0.004265704
38	0x3a9008a6	0.0010988906
39	0xbb64208f	-0.0034809445
40	0x3a5ab226	0.0008342586
41	0xbbcbed86	-0.0062233834
42	0xbc6e1eb6	-0.014533689
43	0xbaca360e	-0.0015427487
44	0x3c00f6d7	0.007871351
45	0xbb81fc28	-0.003966827
46	0x3bbef496	0.0058274968
47	0xbc072f5c	-0.008251037
48	0xbbd1af05	-0.006399038
49	0xba5d2cbd	-0.00084371475
50	0x3c23c486	0.009995585
51	0x3b9ec563	0.0048453077
52	0xbb8f3c84	-0.0043712277
53	0xbbacd521	-0.0052744304
54	0xbaa0acd4	-0.0012258538
55	0xbbb92755	-0.0056504407
56	0x3b9ea4b7	0.004841413
57	0xbb6790de	-0.003533415
58	0xbb01ca4f	-0.0019804423
59	0x3a140928	0.00056471163
60	0xbb645a14	-0.003484373
61	0xbaca95c4	-0.0015456011
62	0x3b020ad5	0.0019842882
63	0xbb819927	-0.0039550248
64	0xbb40f9c0	-0.0029445738
65	0xbbf6a174	-0.007526571
66	0xbb5bf880	-0.0033564866
67	0xbba1123a	-0.004915503
68	0xbb8282bc	-0.00398287
69	0x3beac3a3	0.007164435
70	0xbbe32183	-0.006931485
71	0x3b94a5df	0.004536375
72	0xbb8da662	-0.004322813
73	0xbad30837	-0.0016100471
74	0xbbc143c7	-0.0058979723
75	0x3ba5a7f2	0.005055421
76	0x3bb06ccc	0.0053840633
77	0xbb8e8cbd	-0.0043502734
78	0x3b657d86	0.0035017445
79	0xbbe095e7	-0.0068538073
80	0x3a8a3649	0.0010544743
81	0xbb951ecf	-0.004550792
82	0x3ad84767	0.0016500772
83	0xbb803792	-0.0039128745
84	0xbb835ead	-0.004009089
85	0x3b20d5fd	0.002454161
86	0x3b3ccaac	0.0028807325
87	0x3bd8e057	0.0066185403
88	0xbbc34bcf	-0.005959965
89	0xbb2665ca	-0.002539026
90	0xbba06082	-0.004894317
91	0x3b74ccae	0.0037353444
92	0xbbc7bbe9	-0.0060953987
93	0xbae8a262	-0.0017748589
94	0xbb8eb8db	-0.0043555326
95	0x3a8f2a38	0.0010922616
96	0x3c5f3dd7	0.013625584
97	0xb9de6270	-0.0004241648
98	0xbbb1ee43	-0.0054300143
99	0x3b81ce2a	0.0039613442
100	0xbbd6ac24	-0.0065512825
101	0x3aabb9d3	0.0013101645
102	0xbb684bd4	-0.0035445588
103	0xbbe497bb	-0.0069760955
104	0x3b1b5e52	0.0023707342
105	0xbb137f8d	-0.0022506446
106	0xb9bf5511	-0.00036493738
107	0x3a890993	0.0010455124
108	0x3a38448f	0.0007029259
109	0xbbe79e31	-0.0070684184
110	0xbb9f0d89	-0.0048539084
111	0xbab132e5	-0.0013519196
112	0xbbb4f909	-0.0055228514
113	0xbc0cebef	-0.008601173
114	0xbbd3f8f9	-0.006468889
115	0x3b162c1e	0.002291448
116	0xbbe118e3	-0.006869422
117	0xbac933ed	-0.0015350558
118	0x3b611b48	0.0034348536
119	0xba45fdca	-0.0007552771
120	0xbb6d39f1	-0.0036197866
121	0x3b0b45b8	0.0021251272
122	0xbc09ed6e	-0.008418424
123	0xbbbc5097	-0.0057469117
124	0xbba152fb	-0.004923222
125	0xbb0a7aff	-0.002113044
126	0x3b382ff5	0.0028104756
127	0x3bb7cc10	0.005609043

action_model._continuous_distribution.log_sigma f4 [1, 2]
0	0xba51c323	-0.0008001795
1	0x3c2bf642	0.010495724

action_model._continuous_distribution.mu.weight f4 [2, 128]
0	0x3c8e2fb1	0.017356725
1	0x3cadbbe9	0.021207767
2	0x3acd7b0e	0.0015676932
3	0x3b821ee0	0.0039709657
4	0xbced52e3	-0.028970188
5	0x3c0ee1dd	0.008720842
6	0xbd3b8c4f	-0.045788106
7	0x3c91c230	0.017792791
8	0x3cf29ced	0.029615844
9	0x3c337270	0.010952577
10	0x3bca046d	0.0061650784
11	0x3ba906db	0.005158288
12	0xbc065fde	-0.008201567
13	0x3ad553a9	0.0016275543
14	0xbc864a27	-0.01639278
15	0xbb2c8a46	-0.0026327535
16	0x3cc58562	0.024111453
17	0x3b12592b	0.002233098
18	0x3cdb9531	0.026804538
19	0x3bd74126	0.0065690456
20	0x3cc82d9e	0.024435814
21	0x3c3033cc	0.010754537
22	0xbb66b774	-0.0035204561
23	0x3c3041c0	0.0107578635
24	0x3ca4ff28	0.0201412
25	0xbc5b4cee	-0.013385041
26	0xbaa2dd0b	-0.0012425495
27	0x3cf0769d	0.029353434
28	0x3c45fccf	0.0120842
29	0x389df0ec	7.5312186e-05
30	0x3d2679dc	0.040643558
31	0xbb33e6fa	-0.0027450905
32	0xbce2a1d5	-0.027665058
33	0xbd3d9921	-0.046288613
34	0xba0b7c1f	-0.00053209247
35	0xbc9d29f0	-0.019185036
36	0xbc83645c	-0.016039066
37	0x3bda6d44	0.0066658575
38	0xbcd23f8f	-0.025665073
39	0x3a9be8d3	0.0011894949
40	0xb73eb930	-1.1368e-05
41	0x3c0cdddd	0.008597818
42	0xbabba33f	-0.0014315619
43	0x3bfa267d	0.0076339827
44	0xbc61728e	-0.013760222
45	0x3b2fc35f	0.002681933
46	0xbb8a2ed4	-0.004217008
47	0x36234ba0	2.4332912e-06
48	0x3c4fbba9	0.012679019
49	0x3b177505	0.002311052
50	0xbba28b08	-0.0049604215
51	0xbc82b800	-0.015956879
52	0x3c9b68b9	0.018970834
53	0x3c34ba0b	0.011030684
54	0x3bb63602	0.0055606375
55	0x3cb613a7	0.022226168
56	0xbce6b4e8	-0.028162435
57	0x3c5f7f19	0.013641142
58	0x3d0811fe	0.033220284
59	0xbd118246	-0.03552463
60	0x3c86b05f	0.016441522
61	0x3bef650e	0.007305748
62	0xbc3e304f	-0.011608197
63	0x3c9d7baf	0.019224016
64	0x3ca07a9c	0.019589715
65	0x3cd0a0f1	0.025467368
66	0x3ceafcb5	0.028684953
67	0x3c8564be	0.01628339
68	0x3c9bcf7a	0.019019831
69	0xbc1d8db1	-0.009616301
70	0xba9c91dd	-0.0011945326
71	0xbd22c503	-0.039738666
72	0xbc481cfe	-0.0122139435
73	0xbcc9a65c	-0.02461546
74	0x3cc1ce39	0.023657905
75	0xbcbf9caa	-0.023390133
76	0x3b5101ea	0.003189201
77	0xbc75e03c	-0.015007075
78	0xbcccf5ca	-0.025019545
79	0x3c916952	0.017750416
80	0xbce34a8c	-0.027745508
81	0xbc2aaa5f	-0.010416596
82	0x3b8dcedc	0.004327638
83	0xbc7b5cdd	-0.015341965
84	0x3c5db6d8	0.013532363
85	0x3acebb69	0.0015772405
86	0xbd047a18	-0.032343
87	0xbad31860	-0.0016105287
88	0x3c57d944	0.013174359
89	0x3b6a0028	0.003570566
90	0x3ca281b4	0.019837238
91	0xb7e13a42	-2.6849219e-05
92	0x3c07ca07	0.008287913
93	0xbc0a8147	-0.008453674
94	0xbc5376b2	-0.012906717
95	0xb9190df6	-0.00014596418
96	0xb788382b	-1.6238619e-05
97	0xbbc78ce4	-0.0060897935
98	0x3c8a2d5c	0.016867332
99	0xbcab63d8	-0.020921633
100	0x3d01db57	0.03170332
101	0xbad284ef	-0.0016061346
102	0x3c994f7c	0.018714659
103	0xba392ce0	-0.0007063877
104	0xbc622a6a	-0.013804058
105	0x3cecd641	0.028910758
106	0x3c8a36d8	0.016871855
107	0xbc3d3b7d	-0.011549828
108	0xbcf30c07	-0.029668821
109	0xbbce8e85	-0.0063036107
110	0x3c45d787	0.0120753115
111	0x39985921	0.00029058105
112	0xba76e6e3	-0.000941856
113	0x3c756fc8	0.014980264
114	0xbb353956	-0.0027652583
115	0xbc99577a	-0.01871847
116	0x3af2ca8b	0.0018523497
117	0xbaf5a151	-0.0018740093
118	0xbc8f676f	-0.017505376
119	0x3c3da0c6	0.011573976
120	0xbbe87d92	-0.0070950473
121	0xbc62c48b	-0.013840805
122	0x3c13b37f	0.009014963
123	0x3c9ae130	0.018906206
124	0xbb7e0492	-0.0038760048
125	0x3cd732f0	0.026269406
126	0xbc78ae05	-0.015178208
127	0xbcf6d3f6	-0.030130368
128	0xbc4e1ff8	-0.012580864
129	0x3b9d2feb	0.004796972
130	0xbc280c8d	-0.010256899
131	0x3bd1fd43	0.006408365
132	0x3c8e8fac	0.017402492
133	0xbc7ea26a	-0.015541652
134	0x3d0d82b4	0.034548476
135	0xba5e915c	-0.0008490288
136	0xbcbd6899	-0.023121165
137	0xbc682643	-0.014169279
138	0xba8017ee	-0.0009772757
139	0xbc71bae9	-0.0147540355
140	0xbb430941	-0.0029760154
141	0xbc6b7b91	-0.014372722
142	0xbc6ae1d0	-0.014336064
143	0x3b861b0c	0.0040925797
144	0xbc509244	-0.012730185
145	0xbc7afdda	-0.015319312
146	0xbb87e793	-0.004147479
147	0x3c901d0b	0.017591974
148	0xbc3e550e	-0.011616958
149	0x3a5992c4	0.0008299763
150	0x3abbf974	0.0014341311
151	0x3d073048	0.03300503
152	0xbcce11ae	-0.025154915
153	0xb9836f5b	-0.00025069233
154	0xbbb84c1a	-0.0056243064
155	0xbcefd9a0	-0.029278576
156	0xb9ce24a2	-0.00039318675
157	0x38bfa844	9.138932e-05
158	0xbce2c440	-0.02768147
159	0x3b563d45	0.0032690328
160	0x3c7f5f65	0.015586709
161	0x3c6dbbc8	0.014510103
162	0x3caf580f	0.021404294
163	0x3c7ade78	0.01531183
164	0x3c4bc8da	0.012438023
165	0x3ca02198	0.019547269
166	0xba6230f0	-0.0008628508
167	0xb9f826db	-0.00047331196
168	0xb84f5f44	-4.944137e-05
169	0xbc6f0e4a	-0.014590809
170	0x3ab667e3	0.0013916459
171	0x3d25a1f0	0.04043764
172	0x3b8b1301	0.004244209
173	0x3c886e23	0.01665408
174	0xbab16914	-0.0013535344
175	0xbb863439	-0.004095581
176	0x3c1485a3	0.009065065
177	0x3b35eab4	0.0027758302
178	0x3b59f932	0.0033260104
179	0xbbf16781	-0.007367075
180	0xbb9acd75	-0.0047241994
181	0x3c4f93d0	0.012669519
182	0x3c14165c	0.009038534
183	0x3c222a57	0.00989779
184	0x3c351805	0.01105309
185	0xb8ce0d8b	-9.825368e-05
186	0x3c94e4a4	0.01817543
187	0xbc1f5226	-0.009724176
188	0x3c425881	0.011861921
189	0x3d2bda58	0.041956276
190	0x3cc5e592	0.02415732
191	0xbce1ba44	-0.027554639
192	0xb90a6fc2	-0.00013202339
193	0xbce17e79	-0.027526127
194	0x3a007347	0.000489999
195	0xbcf88acf	-0.030339627
196	0xbb7de31d	-0.0038740106
197	0x3b3503e7	0.0027620734
198	0xbbd87a4f	-0.006606377
199	0x3bc90ce1	0.0061355685
200	0xbd440c6c	-0.04786341
201	0xbca582a6	-0.0202039
202	0xbc7f6d51	-0.015590028
203	0x3c9115f9	0.017710673
204	0xbb269afb	-0.0025421965
205	0xbd0e63c5	-0.034763116
206	0x3c377a3e	0.011198578
207	0x3bc74dbf	0.006082266
208	0xbb172928	-0.0023065303
209	0x3aa75cfb	0.0012768799
210	0xbc057938	-0.008146577
211	0xbba59d7c	-0.005054174
212	0xbb347aff	-0.0027539132
213	0x3b6c089e	0.0036015878
214	0x395bdbc7	0.00020967341
215	0xbbb6033a	-0.005554584
216	0x3b95357b	0.0045534945
217	0xbcbebfdb	-0.023284843
218	0x3a578b24	0.00082223327
219	0x35431621	7.267536e-07
220	0x3bb0a8c2	0.0053912112
221	0x3c047684	0.008084897
222	0xbcbaec4b	-0.022817751
223	0x3b9a5747	0.0047101113
224	0x38719c00	5.7604164e-05
225	0x3cefc841	0.029270293
226	0xbb018790	-0.001976464
227	0x3c8b75b9	0.017023908
228	0x3b8c285e	0.004277273
229	0xbb93b8eb	-0.004508128
230	0x3cb3f2f7	0.02196644
231	0x3bb135a7	0.005408007
232	0x3d131fc3	0.035918962
233	0x3be528b8	0.0069933794
234	0x3c5d2222	0.013496907
235	0x3c8a1e41	0.01686013
236	0xbba406dd	-0.005005701
237	0x3aca8d9c	0.001545358
238	0xbbaed888	-0.005335871
239	0x393da37d	0.00018085349
240	0xbc829457	-0.015939875
241	0xbc7295e2	-0.014806243
242	0xba3eeb9e	-0.00072830345
243	0x3d1fb1ea	0.03898803
244	0xba921dbf	-0.0011147781
245	0xbcc8601f	-0.024459897
246	0x3c0d2ef7	0.008617154
247	0x3a24cb42	0.0006286391
248	0xbba09433	-0.004900479
249	0x3cfdcd7c	0.030981772
250	0xbc48b6e3	-0.012250635
251	0xbc0bd4ac	-0.008534592
252	0xbcccba14	-0.024991073
253	0x3b53b67e	0.0032304819
254	0x3bc493e0	0.0059990734
255	0x3c88705f	0.016655145

action_model._continuous_distribution.mu.bias f4 [2]
0	0xbbc7b8ea	-0.0060950415
1	0x3b4d7533	0.0031350374

exp_avg f4 [128, 8]
0	0xb8e9ecda	-0.00011154423
1	0xb7e6741d	-2.7472206e-05
2	0xb8e3e0da	-0.00010866085
3	0x00000000	0.0
4	0xb7e6741d	-2.7472206e-05
5	0x00000000	0.0
6	0x00000000	0.0
7	0x00000000	0.0
8	0x38809723	6.131667e-05
9	0x377d5d30	1.5101672e-05
10	0x387a8860	5.9731654e-05
11	0x00000000	0.0
12	0x377d5d30	1.5101672e-05
13	0x00000000	0.0
14	0x00000000	0.0
15	0x00000000	0.0
16	0x378103d0	1.5379774e-05
17	0x367e334e	3.7878813e-06
18	0x377b5c18	1.4982208e-05
19	0x00000000	0.0
20	0x367e334e	3.7878813e-06
21	0x00000000	0.0
22	0x00000000	0.0
23	0x00000000	0.0
24	0x3920a86d	0.00015321533
25	0x381e460f	3.7735383e-05
26	0x391c8145	0.00014925476
27	0x00000000	0.0
28	0x381e460f	3.7735383e-05
29	0x00000000	0.0
30	0x00000000	0.0
31	0x00000000	0.0
32	0x393799d8	0.00017509551
33	0x3834e050	4.312425e-05
34	0x3932dadc	0.00017056934
35	0x00000000	0.0
36	0x3834e050	4.312425e-05
37	0x00000000	0.0
38	0x00000000	0.0
39	0x00000000	0.0
40	0xba23d03a	-0.0006248985
41	0xb92161dc	-0.00015390612
42	0xba1f942f	-0.000608745
43	0x00000000	0.0
44	0xb92161dc	-0.00015390612
45	0x00000000	0.0
46	0x00000000	0.0
47	0x00000000	0.0
48	0x3a05d956	0.0005105933
49	0x3903dcd1	0.00012575394
50	0x3a026395	0.00049739453
51	0x00000000	0.0
52	0x3903dcd1	0.00012575394
53	0x00000000	0.0
54	0x00000000	0.0
55	0x00000000	0.0
56	0xbac4f777	-0.0015027364
57	0xb9c20b28	-0.00037010876
58	0xbabfe00a	-0.0014638912
59	0x00000000	0.0
60	0xb9c20b28	-0.00037010876
61	0x00000000	0.0
62	0x00000000	0.0
63	0x00000000	0.0
64	0xb9a068b7	-0.00030595597
65	0xb89e074a	-7.535385e-05
66	0xb99c4334	-0.0002980471
67	0x00000000	0.0
68	0xb89e074a	-7.535385e-05
69	0x00000000	0.0
70	0x00000000	0.0
71	0x00000000	0.0
72	0xb95611eb	-0.00020415305
73	0xb852e4a0	-5.0280825e-05
74	0xb950894e	-0.00019887576
75	0x00000000	0.0
76	0xb852e4a0	-5.0280825e-05
77	0x00000000	0.0
78	0x00000000	0.0
79	0x00000000	0.0
80	0xb8932e1e	-7.018096e-05
81	0xb790feee	-1.7284849e-05
82	0xb88f6020	-6.836676e-05
83	0x00000000	0.0
84	0xb790feee	-1.7284849e-05
85	0x00000000	0.0
86	0x00000000	0.0
87	0x00000000	0.0
88	0xb7838888	-1.5679994e-05
89	0xb68194ce	-3.8618227e-06
90	0xb780221b	-1.527467e-05
91	0x00000000	0.0
92	0xb68194ce	-3.8618227e-06
93	0x00000000	0.0
94	0x00000000	0.0
95	0x00000000	0.0
96	0xb961754a	-0.00021501366
97	0xb85e1cc4	-5.2955715e-05
98	0xb95ba15b	-0.00020945577
99	0x00000000	0.0
100	0xb85e1cc4	-5.2955715e-05
101	0x00000000	0.0
102	0x00000000	0.0
103	0x00000000	0.0
104	0xb837b2bd	-4.3797063e-05
105	0xb734f8d4	-1.0786771e-05
106	0xb832f318	-4.2664906e-05
107	0x00000000	0.0
108	0xb734f8d4	-1.0786771e-05
109	0x00000000	0.0
110	0x00000000	0.0
111	0x00000000	0.0
112	0x38ed6ff9	0.00011321897
113	0x37e9e9e4	2.7884678e-05
114	0x38e74cba	0.0001102923
115	0x00000000	0.0
116	0x37e9e9e4	2.7884678e-05
117	0x00000000	0.0
118	0x00000000	0.0
119	0x00000000	0.0
120	0xb80bca96	-3.3328855e-05
121	0xb709b780	-8.208561e-06
122	0xb8082d84	-3.2467316e-05
123	0x00000000	0.0
124	0xb709b780	-8.208561e-06
125	0x00000000	0.0
126	0x00000000	0.0
127	0x00000000	0.0
128	0x39710f1c	0.0002298918
129	0x386d7b46	5.662001e-05
130	0x396ad3e4	0.00022394914
131	0x00000000	0.0
132	0x386d7b46	5.662001e-05
133	0x00000000	0.0
134	0x00000000	0.0
135	0x00000000	0.0
136	0xba9011b9	-0.001099161
137	0xb98dee5f	-0.00027071216
138	0xba8c5857	-0.001070748
139	0x00000000	0.0
140	0xb98dee5f	-0.00027071216
141	0x00000000	0.0
142	0x00000000	0.0
143	0x00000000	0.0
144	0xba79db04	-0.0009531232
145	0xb97625c3	-0.00023474456
146	0xba736594	-0.00092848507
147	0x00000000	0.0
148	0xb97625c3	-0.00023474456
149	0x00000000	0.0
150	0x00000000	0.0
151	0x00000000	0.0
152	0x3a5ff634	0.0008543462
153	0x395ca352	0.00021041677
154	0x3a5a2c23	0.0008322617
155	0x00000000	0.0
156	0x395ca352	0.00021041677
157	0x00000000	0.0
158	0x00000000	0.0
159	0x00000000	0.0
160	0xba10139a	-0.0005496085
161	0xb90df036	-0.00013536293
162	0xba0c5a29	-0.0005354011
163	0x00000000	0.0
164	0xb90df036	-0.00013536293
165	0x00000000	0.0
166	0x00000000	0.0
167	0x00000000	0.0
168	0x371a97d0	9.214462e-06
169	0x36184c28	2.2694094e-06
170	0x37169878	8.976196e-06
171	0x00000000	0.0
172	0x36184c28	2.2694094e-06
173	0x00000000	0.0
174	0x00000000	0.0
175	0x00000000	0.0
176	0xb554f980	-7.9339225e-07
177	0xb451d140	-1.9540767e-07
178	0xb54f7b20	-7.729268e-07
179	0x00000000	0.0
180	0xb451d140	-1.9540767e-07
181	0x00000000	0.0
182	0x00000000	0.0
183	0x00000000	0.0
184	0x38c0e649	9.1981674e-05
185	0x37be096b	2.265415e-05
186	0x38bbe9c4	8.960397e-05
187	0x00000000	0.0
188	0x37be096b	2.265415e-05
189	0x00000000	0.0
190	0x00000000	0.0
191	0x00000000	0.0
192	0xbad8754d	-0.001651445
193	0xb9d53eed	-0.0004067341
194	0xbad2dcde	-0.0016087552
195	0x00000000	0.0
196	0xb9d53eed	-0.0004067341
197	0x00000000	0.0
198	0x00000000	0.0
199	0x00000000	0.0
200	0xb925533c	-0.00015766633
201	0xb822df28	-3.883164e-05
202	0xb9210d31	-0.0001535907
203	0x00000000	0.0
204	0xb822df28	-3.883164e-05
205	0x00000000	0.0
206	0x00000000	0.0
207	0x00000000	0.0
208	0xb8afe90e	-8.38806e-05
209	0xb7ad4cba	-2.0658936e-05
210	0xb8ab5cf6	-8.171231e-05
211	0x00000000	0.0
212	0xb7ad4cba	-2.0658936e-05
213	0x00000000	0.0
214	0x00000000	0.0
215	0x00000000	0.0
216	0xb9f792ff	-0.00047221032
217	0xb8f3e668	-0.000116300595
218	0xb9f12cab	-0.00046000382
219	0x00000000	0.0
220	0xb8f3e668	-0.000116300595
221	0x00000000	0.0
222	0x00000000	0.0
223	0x00000000	0.0
224	0xb91b9123	-0.0001483602
225	0xb8194218	-3.6539597e-05
226	0xb9178ba7	-0.00014452507
227	0x00000000	0.0
228	0xb8194218	-3.6539597e-05
229	0x00000000	0.0
230	0x00000000	0.0
231	0x00000000	0.0
232	0xb9247c9e	-0.00015686682
233	0xb8220bb4	-3.863471e-05
234	0xb9203c20	-0.00015281187
235	0x00000000	0.0
236	0xb8220bb4	-3.863471e-05
237	0x00000000	0.0
238	0x00000000	0.0
239	0x00000000	0.0
240	0xbb2c329f	-0.002627529
241	0xba29a464	-0.00064713345
242	0xbb27bf15	-0.0025596072
243	0x00000000	0.0
244	0xba29a464	-0.00064713345
245	0x00000000	0.0
246	0x00000000	0.0
247	0x00000000	0.0
248	0xba095da7	-0.00052400905
249	0xb90753c6	-0.00012905811
250	0xba05d0a3	-0.00051046367
251	0x00000000	0.0
252	0xb90753c6	-0.00012905811
253	0x00000000	0.0
254	0x00000000	0.0
255	0x00000000	0.0

exp_avg_sq f4 [128, 8]
0	0x346c47bf	2.2005314e-07
1	0x326551af	1.3348127e-08
2	0x346038e7	2.0882327e-07
3	0x00000000	0.0
4	0x326551af	1.3348127e-08
5	0x00000000	0.0
6	0x00000000	0.0
7	0x00000000	0.0
8	0x34c0d804	3.591996e-07
9	0x32bb29a6	2.1788605e-08
10	0x34b700c5	3.4086966e-07
11	0x00000000	0.0
12	0x32bb29a6	2.1788605e-08
13	0x00000000	0.0
14	0x00000000	0.0
15	0x00000000	0.0
16	0x324f8047	1.2078153e-08
17	0x30496350	7.3264506e-10
18	0x3244e98c	1.1461804e-08
19	0x00000000	0.0
20	0x30496350	7.3264506e-10
21	0x00000000	0.0
22	0x00000000	0.0
23	0x00000000	0.0
24	0x35c20608	1.4455882e-06
25	0x33bc4ea9	8.7687404e-08
26	0x35b81f4a	1.3718175e-06
27	0x00000000	0.0
28	0x33bc4ea9	8.7687404e-08
29	0x00000000	0.0
30	0x00000000	0.0
31	0x00000000	0.0
32	0x354b2ca0	7.568833e-07
33	0x33453049	4.5911552e-08
34	0x3540ce4e	7.1825787e-07
35	0x00000000	0.0
36	0x33453049	4.5911552e-08
37	0x00000000	0.0
38	0x00000000	0.0
39	0x00000000	0.0
40	0x3711e75f	8.696544e-06
41	0x350d9aea	5.275202e-07
42	0x370a7545	8.252745e-06
43	0x00000000	0.0
44	0x350d9aea	5.275202e-07
45	0x00000000	0.0
46	0x00000000	0.0
47	0x00000000	0.0
48	0x3684e1c7	3.9601905e-06
49	0x3480f784	2.402195e-07
50	0x367c3386	3.7580917e-06
51	0x00000000	0.0
52	0x3480f784	2.402195e-07
53	0x00000000	0.0
54	0x00000000	0.0
55	0x00000000	0.0
56	0x387fc3c1	6.0979048e-05
57	0x36783ad5	3.6989125e-06
58	0x3872b67a	5.786724e-05
59	0x00000000	0.0
60	0x36783ad5	3.6989125e-06
61	0x00000000	0.0
62	0x00000000	0.0
63	0x00000000	0.0
64	0x360ed66a	2.1284454e-06
65	0x340aa124	1.2910874e-07
66	0x36078c65	2.0198288e-06
67	0x00000000	0.0
68	0x340aa124	1.2910874e-07
69	0x00000000	0.0
70	0x00000000	0.0
71	0x00000000	0.0
72	0x354d47a2	7.647269e-07
73	0x33473b5f	4.6387296e-08
74	0x3542cdcf	7.257012e-07
75	0x00000000	0.0
76	0x33473b5f	4.6387296e-08
77	0x00000000	0.0
78	0x00000000	0.0
79	0x00000000	0.0
80	0x3662cb16	3.3794836e-06
81	0x345c1c9b	2.0499503e-07
82	0x3657383c	3.207023e-06
83	0x00000000	0.0
84	0x345c1c9b	2.0499503e-07
85	0x00000000	0.0
86	0x00000000	0.0
87	0x00000000	0.0
88	0x331f6cf9	3.7119182e-08
89	0x311aba8f	2.2515996e-09
90	0x33174a2a	3.522488e-08
91	0x00000000	0.0
92	0x311aba8f	2.2515996e-09
93	0x00000000	0.0
94	0x00000000	0.0
95	0x00000000	0.0
96	0x38582e0e	5.1541305e-05
97	0x3651cf9e	3.1264276e-06
98	0x384d25cf	4.891102e-05
99	0x00000000	0.0
100	0x3651cf9e	3.1264276e-06
101	0x00000000	0.0
102	0x00000000	0.0
103	0x00000000	0.0
104	0x33519414	4.879628e-08
105	0x314b6759	2.9599134e-09
106	0x3346e222	4.6306134e-08
107	0x00000000	0.0
108	0x314b6759	2.9599134e-09
109	0x00000000	0.0
110	0x00000000	0.0
111	0x00000000	0.0
112	0x347cd966	2.3548418e-07
113	0x3275665a	1.4284149e-08
114	0x346ff227	2.2346704e-07
115	0x00000000	0.0
116	0x3275665a	1.4284149e-08
117	0x00000000	0.0
118	0x00000000	0.0
119	0x00000000	0.0
120	0x331196a3	3.3897447e-08
121	0x310d4cac	2.0561783e-09
122	0x330a28af	3.216763e-08
123	0x00000000	0.0
124	0x310d4cac	2.0561783e-09
125	0x00000000	0.0
126	0x00000000	0.0
127	0x00000000	0.0
128	0x35c6fc2e	1.4825544e-06
129	0x33c11f73	8.9929834e-08
130	0x35bcd499	1.4068966e-06
131	0x00000000	0.0
132	0x33c11f73	8.9929834e-08
133	0x00000000	0.0
134	0x00000000	0.0
135	0x00000000	0.0
136	0x380cb63c	3.354832e-05
137	0x360890f0	2.0349944e-06
138	0x380587fe	3.1836324e-05
139	0x00000000	0.0
140	0x360890f0	2.0349944e-06
141	0x00000000	0.0
142	0x00000000	0.0
143	0x00000000	0.0
144	0x383c4f1a	4.4896362e-05
145	0x3636c2e6	2.723356e-06
146	0x3832b308	4.2605243e-05
147	0x00000000	0.0
148	0x3636c2e6	2.723356e-06
149	0x00000000	0.0
150	0x00000000	0.0
151	0x00000000	0.0
152	0x37a7f4c1	2.0021924e-05
153	0x35a30201	1.214503e-06
154	0x379f62a0	1.9000203e-05
155	0x00000000	0.0
156	0x35a30201	1.214503e-06
157	0x00000000	0.0
158	0x00000000	0.0
159	0x00000000	0.0
160	0x37818c62	1.544337e-05
161	0x357b7684	9.367725e-07
162	0x3775dfd8	1.4655256e-05
163	0x00000000	0.0
164	0x357b7684	9.367725e-07
165	0x00000000	0.0
166	0x00000000	0.0
167	0x00000000	0.0
168	0x36e9a164	6.9627295e-06
169	0x34e2bf43	4.2234942e-07
170	0x36ddb533	6.6074076e-06
171	0x00000000	0.0
172	0x34e2bf43	4.2234942e-07
173	0x00000000	0.0
174	0x00000000	0.0
175	0x00000000	0.0
176	0x35faf2a2	1.8697067e-06
177	0x33f38dfb	1.13413954e-07
178	0x35ee2450	1.774295e-06
179	0x00000000	0.0
180	0x33f38dfb	1.13413954e-07
181	0x00000000	0.0
182	0x00000000	0.0
183	0x00000000	0.0
184	0x342cf362	1.610729e-07
185	0x3227daf3	9.770463e-09
186	0x34241ff9	1.5285322e-07
187	0x00000000	0.0
188	0x3227daf3	9.770463e-09
189	0x00000000	0.0
190	0x00000000	0.0
191	0x00000000	0.0
192	0x38a621b1	7.921772e-05
193	0x36a13cc2	4.805247e-06
194	0x389da75a	7.517515e-05
195	0x00000000	0.0
196	0x36a13cc2	4.805247e-06
197	0x00000000	0.0
198	0x00000000	0.0
199	0x00000000	0.0
200	0x37a90620	2.0149222e-05
201	0x35a40b56	1.2222251e-06
202	0x37a065f0	1.9120955e-05
203	0x00000000	0.0
204	0x35a40b56	1.2222251e-06
205	0x00000000	0.0
206	0x00000000	0.0
207	0x00000000	0.0
208	0x3411a51a	1.3564241e-07
209	0x320d5aaa	8.227895e-09
210	0x340a366a	1.2872047e-07
211	0x00000000	0.0
212	0x320d5aaa	8.227895e-09
213	0x00000000	0.0
214	0x00000000	0.0
215	0x00000000	0.0
216	0x36bde551	5.659335e-06
217	0x34b84d1f	3.4328784e-07
218	0x36b4347c	5.370528e-06
219	0x00000000	0.0
220	0x34b84d1f	3.4328784e-07
221	0x00000000	0.0
222	0x00000000	0.0
223	0x00000000	0.0
224	0x35144f82	5.5249996e-07
225	0x330ff0ec	3.35139e-08
226	0x350cbdf8	5.2430505e-07
227	0x00000000	0.0
228	0x330ff0ec	3.35139e-08
229	0x00000000	0.0
230	0x00000000	0.0
231	0x00000000	0.0
232	0x352455b3	6.121947e-07
233	0x331f7e43	3.7134907e-08
234	0x351bf2c7	5.809529e-07
235	0x00000000	0.0
236	0x331f7e43	3.7134907e-08
237	0x00000000	0.0
238	0x00000000	0.0
239	0x00000000	0.0
240	0x39314f43	0.00016909563
241	0x372c15f4	1.025711e-05
242	0x392842e8	0.00016046653
243	0x00000000	0.0
244	0x372c15f4	1.025711e-05
245	0x00000000	0.0
246	0x00000000	0.0
247	0x00000000	0.0
248	0x374b01d5	1.2100169e-05
249	0x354506c5	7.339807e-07
250	0x3740a5a6	1.148266e-05
251	0x00000000	0.0
252	0x354506c5	7.339807e-07
253	0x00000000	0.0
254	0x00000000	0.0
255	0x00000000	0.0

exp_avg f4 [128]
0	0xb866741e	-5.4944416e-05
1	0x37fd5d33	3.020335e-05
2	0x36fe3354	7.5757653e-06
3	0x389e460c	7.547074e-05
4	0x38b4e050	8.62485e-05
5	0xb9a161dd	-0.00030781227
6	0x3983dcd0	0.00025150785
7	0xba420b2a	-0.0007402176
8	0xb91e074a	-0.0001507077
9	0xb8d2e4a0	-0.00010056165
10	0xb810feed	-3.4569694e-05
11	0xb70194cf	-7.723646e-06
12	0xb8de1cc8	-0.00010591146
13	0xb7b4f8d3	-2.157354e-05
14	0x3869e9e4	5.5769357e-05
15	0xb789b782	-1.6417125e-05
16	0x38ed7b46	0.00011324002
17	0xba0dee60	-0.0005414244
18	0xb9f625c4	-0.00046948914
19	0x39dca352	0.00042083353
20	0xb98df036	-0.00027072587
21	0x36984c68	4.538848e-06
22	0xb4d1d140	-3.9081533e-07
23	0x383e096a	4.5308298e-05
24	0xba553eef	-0.0008134683
25	0xb8a2df26	-7.7663266e-05
26	0xb82d4cbb	-4.1317875e-05
27	0xb973e666	-0.00023260116
28	0xb8994217	-7.307919e-05
29	0xb8a20bb4	-7.726942e-05
30	0xbaa9a464	-0.0012942669
31	0xb98753c8	-0.00025811628
32	0x3896211d	7.158725e-05
33	0xb8dd6137	-0.00010556209
34	0xba6795ae	-0.00088342547
35	0xb79bf918	-1.8593433e-05
36	0xb81c8cbd	-3.732437e-05
37	0x37bc8836	2.2474775e-05
38	0x38c5e2ac	9.435913e-05
39	0x37006d81	7.65489e-06
40	0x37e130d8	2.6844835e-05
41	0xb97387cc	-0.00023224874
42	0x39e317e9	0.00043314628
43	0x38223882	3.8676437e-05
44	0xb824c3e8	-3.92831e-05
45	0x380aa846	3.305848e-05
46	0xb9fdd6d3	-0.00048415977
47	0xb0bee0be	-1.3888195e-09
48	0xba89cd55	-0.0010513464
49	0x37373c91	1.0921752e-05
50	0xb99eb4d3	-0.00030270833
51	0xb72c0ba4	-1.0254709e-05
52	0x391dfcc9	0.00015066857
53	0xb8b0b5b6	-8.42618e-05
54	0xba4d8203	-0.00078395027
55	0xb8c83da9	-9.548228e-05
56	0xb9644cb4	-0.00021772349
57	0xb584eded	-9.904012e-07
58	0xb989ef51	-0.0002630898
59	0xb8fc5927	-0.00012032902
60	0x374830da	1.1932303e-05
61	0x383f211d	4.5568788e-05
62	0xb9836e6c	-0.00025068538
63	0xb90939eb	-0.00013086914
64	0xb91d7d60	-0.00015019393
65	0xb8eb37fc	-0.00011216101
66	0x37353f03	1.0803112e-05
67	0xb9a8a359	-0.0003216516
68	0xb5fadeb0	-1.8691262e-06
69	0xb97fd7de	-0.00024399112
70	0x38e0b4b8	0.00010714814
71	0x355f3d34	8.3163036e-07
72	0x36587046	3.225186e-06
73	0xb90c6a8c	-0.00013391132
74	0xb8ff199a	-0.00012164116
75	0x38ee0d03	0.00011351148
76	0xb92fadad	-0.00016754
77	0xb8af86c4	-8.369752e-05
78	0x3766c0ff	1.3754004e-05
79	0xba1998fe	-0.00058592844
80	0x377ee19a	1.5192107e-05
81	0xb833fbbe	-4.291138e-05
82	0xba36e41c	-0.000697674
83	0xb581c500	-9.668584e-07
84	0xb806edd4	-3.2169584e-05
85	0xb99c65dc	-0.0002983053
86	0x3888ace8	6.517192e-05
87	0xb9a00663	-0.00030522337
88	0xb9865614	-0.00025622605
89	0xba0d6390	-0.0005393559
90	0xba5d136f	-0.0008433377
91	0xba0e579c	-0.0005429925
92	0x38b1c1ce	8.476117e-05
93	0xb7ad99e4	-2.0694868e-05
94	0xb9164e4c	-0.00014334283
95	0xba676a5f	-0.0008827801
96	0xb99c3048	-0.0002979061
97	0x36f2f695	7.240868e-06
98	0xb9af4a08	-0.0003343376
99	0xba8573b6	-0.0010181579
100	0x3a0a7595	0.00052818033
101	0x396f7d42	0.00022839478
102	0xb9254f12	-0.00015765082
103	0xb84e29c4	-4.9153125e-05
104	0xb62422b0	-2.4458095e-06
105	0xb8403813	-4.582859e-05
106	0xb81f0e10	-3.792165e-05
107	0x38b598eb	8.659236e-05
108	0x3913dbb8	0.00014100864
109	0xb9398e5c	-0.00017696008
110	0x38f61dda	0.000117357544
111	0xb8c7d9a5	-9.529599e-05
112	0xb7922f43	-1.7426564e-05
113	0xb8145456	-3.5364494e-05
114	0xb722c5bb	-9.70199e-06
115	0x394244f9	0.00018526976
116	0xb86f9af0	-5.7126337e-05
117	0xb9d1dc4a	-0.00040027715
118	0xb7e8ff36	-2.7775397e-05
119	0xb96c4111	-0.00022530953
120	0x3938ea55	0.00017634903
121	0x3736276b	1.0857223e-05
122	0xba006239	-0.0004897449
123	0x3839ab18	4.426678e-05
124	0xb9f6646f	-0.00046995605
125	0xb7870c7c	-1.6099068e-05
126	0xb98675f8	-0.00025646365
127	0xb940fad5	-0.00018403989

exp_avg_sq f4 [128]
0	0x336551ac	5.3392498e-08
1	0x33bb29a4	8.7154405e-08
2	0x31496353	2.930581e-09
3	0x34bc4eaa	3.5074964e-07
4	0x34453048	1.836462e-07
5	0x360d9aeb	2.1100811e-06
6	0x3580f784	9.60878e-07
7	0x37783ad3	1.4795648e-05
8	0x350aa122	5.1643485e-07
9	0x34473b5e	1.8554917e-07
10	0x355c1c9b	8.1998013e-07
11	0x321aba8f	9.006398e-09
12	0x3751cf9e	1.250571e-05
13	0x324b6759	1.1839654e-08
14	0x3375665b	5.71366e-08
15	0x320d4cad	8.224714e-09
16	0x34c11f73	3.5971934e-07
17	0x370890f0	8.139978e-06
18	0x3736c2e6	1.0893424e-05
19	0x36a301ff	4.858011e-06
20	0x367b7684	3.74709e-06
21	0x35e2bf44	1.6893978e-06
22	0x34f38dfb	4.5365582e-07
23	0x3327daf3	3.908185e-08
24	0x37a13cc3	1.922099e-05
25	0x36a40b56	4.8889005e-06
26	0x330d5aaa	3.291158e-08
27	0x35b84d1f	1.3731513e-06
28	0x340ff0eb	1.3405558e-07
29	0x341f7e43	1.4853963e-07
30	0x382c15f4	4.102844e-05
31	0x364506c6	2.935923e-06
32	0x3551cf00	7.815979e-07
33	0x35995bd3	1.1426113e-06
34	0x37c1c44f	2.3098806e-05
35	0x324b2de4	1.18265895e-08
36	0x355d1d50	8.237157e-07
37	0x3226ea42	9.715736e-09
38	0x34f1732e	4.4973552e-07
39	0x337688f4	5.7400896e-08
40	0x32d05169	2.4251408e-08
41	0x360f1696	2.1321807e-06
42	0x3692cfde	4.375338e-06
43	0x3413b10d	1.3754853e-07
44	0x348f68b5	2.671201e-07
45	0x3340a12a	4.485006e-08
46	0x36dc1de1	6.5599893e-06
47	0x2c46f1d0	2.8271725e-12
48	0x37f02b47	2.8630382e-05
49	0x34998e91	2.8602201e-07
50	0x36aecc9d	5.209424e-06
51	0x332816a8	3.9136154e-08
52	0x35379226	6.8385486e-07
53	0x3416e290	1.4052262e-07
54	0x37a94a2a	2.0180905e-05
55	0x3576beca	9.1919776e-07
56	0x360bc158	2.0825155e-06
57	0x3122a658	2.3668658e-09
58	0x365a9685	3.2572145e-06
59	0x3541d262	7.220425e-07
60	0x31987e40	4.438135e-09
61	0x3335b1e3	4.2304134e-08
62	0x36099aea	2.0504763e-06
63	0x34b8263f	3.4300498e-07
64	0x3566d4dc	8.599143e-07
65	0x356b84b1	8.7737413e-07
66	0x321cd1cb	9.1280965e-09
67	0x367d1036	3.7709374e-06
68	0x35064b88	5.00288e-07
69	0x35fb6a4d	1.8731895e-06
70	0x35454ed5	7.3502935e-07
71	0x30b37352	1.305674e-09
72	0x324531da	1.1478244e-08
73	0x35cdca05	1.5332486e-06
74	0x363214b7	2.6536125e-06
75	0x34a45509	3.0609252e-07
76	0x35940271	1.102757e-06
77	0x35fcd552	1.8837547e-06
78	0x33521453	4.891292e-08
79	0x372e0454	1.0372216e-05
80	0x32237819	9.515156e-09
81	0x32f08ff4	2.800514e-08
82	0x375f0c6b	1.3294727e-05
83	0x35a8f27e	1.258755e-06
84	0x350e463b	5.300132e-07
85	0x3769b427	1.3929827e-05
86	0x35f5becc	1.8309452e-06
87	0x36c374db	5.8250566e-06
88	0x369c30b7	4.6548334e-06
89	0x37029dd6	7.785353e-06
90	0x379a72de	1.841172e-05
91	0x37d8df47	2.5853178e-05
92	0x355a8cf5	8.141645e-07
93	0x32c66fe6	2.310112e-08
94	0x34af698a	3.267308e-07
95	0x3782d041	1.5594183e-05
96	0x36ab8634	5.1118204e-06
97	0x30820b48	9.461951e-10
98	0x369b133d	4.6215996e-06
99	0x37f261e8	2.889424e-05
100	0x36db76c5	6.540535e-06
101	0x35e33aa5	1.6929886e-06
102	0x3512997a	5.4612576e-07
103	0x33d71ddd	1.001715e-07
104	0x36397385	2.763439e-06
105	0x339f640c	7.422213e-08
106	0x335549eb	4.9660155e-08
107	0x34a99e3d	3.1593837e-07
108	0x3519eb92	5.733974e-07
109	0x36069988	2.0056923e-06
110	0x34aacf57	3.1815827e-07
111	0x3403be86	1.2269638e-07
112	0x311869d8	2.2179076e-09
113	0x375f9771	1.3327096e-05
114	0x3516651c	5.602649e-07
115	0x350e0e05	5.2919523e-07
116	0x34a02db5	2.983558e-07
117	0x36b42e57	5.3698127e-06
118	0x329a90bf	1.7993782e-08
119	0x36094eb1	2.0460395e-06
120	0x3688c54b	4.0760838e-06
121	0x31b466d2	5.250379e-09
122	0x378c5808	1.6730293e-05
123	0x35387bdf	6.87256e-07
124	0x37c2ad86	2.3207405e-05
125	0x31bdee21	5.527696e-09
126	0x35f1958d	1.7999424e-06
127	0x36dc4e79	6.5656463e-06
